bots/HD_PPO/model.pt (torch, 25887 bytes, 13 tensors)

fc1.weight f4 [64, 6]
0	0xbb9df99f	-0.004821017
1	0x3eb095c5	0.34489265
2	0x3e4f29cf	0.20230792
3	0x3e441a8b	0.1915075
4	0xbd193e2f	-0.03741282
5	0xbec4a83a	-0.38409597
6	0x3ca2bd57	0.019865675
7	0xbeaf4909	-0.3423541
8	0xbec54056	-0.38525647
9	0xbe5441df	-0.20728253
10	0xbe3ac5c5	-0.18239506
11	0xbebe775c	-0.3720044
12	0xbe74443c	-0.23854154
13	0xbe4866cc	-0.19570464
14	0x3e9e50a9	0.30920914
15	0xbe92c3df	-0.28665063
16	0x3e2a0749	0.16604342
17	0x3996e802	0.0002878309
18	0x3e44bba8	0.1921221
19	0xbe40a9bc	-0.18814749
20	0x3e91dabb	0.2848719
21	0xbe7a4f67	-0.24444352
22	0x3eb66941	0.35627177
23	0xbe375eff	-0.17907332
24	0xbe96ee7a	-0.29478818
25	0x3eb1262d	0.34599438
26	0xbe810081	-0.25195697
27	0x3e436b9c	0.19084018
28	0x3e2c0007	0.16796885
29	0x3ebd3c6d	0.36960164
30	0xbe9e540b	-0.30923495
31	0x3eafb579	0.3431814
32	0xbea3812f	-0.31934497
33	0xbdae3123	-0.08505466
34	0x3e92f981	0.2870598
35	0x3dca89fd	0.098896004
36	0xbc6f3f3b	-0.014602478
37	0xbeac26a1	-0.33623222
38	0x3e02240c	0.12709063
39	0xbec92a2a	-0.3928998
40	0xbeccd3e7	-0.4000542
41	0xbe76028c	-0.24024409
42	0x3eb16409	0.34646633
43	0xbe578c0c	-0.21049517
44	0x3d50e46e	0.050999098
45	0xbe7314f9	-0.23738469
46	0xbe38a5f5	-0.18032058
47	0x3e9f4f61	0.3111525
48	0xbc9edea2	-0.019393269
49	0x3dfe89de	0.1242864
50	0xbeb50d25	-0.3536159
51	0x3bd8934a	0.006609355
52	0xbc098c03	-0.008395198
53	0xbeae8a2f	-0.340898
54	0x3e0d9d96	0.13829646
55	0x3ead4211	0.33839467
56	0xbe9c6c30	-0.3055129
57	0x3e314a52	0.17313507
58	0xbe0fe697	-0.14052807
59	0xbec36b09	-0.381676
60	0xbec94471	-0.3931003
61	0x3dbd3cd6	0.09240119
62	0xbda8f0fa	-0.08249088
63	0x3e58664b	0.21132772
64	0xbece3df0	-0.4028163
65	0x3ed0a0fb	0.40747818
66	0xbebf6efa	-0.37389356
67	0xbe103865	-0.14084013
68	0x3ec16b88	0.37777352
69	0x3ea12ab7	0.314779
70	0x3e19c208	0.15015423
71	0xbe362961	-0.17789222
72	0x3d8e7751	0.069563515
73	0xbecf6f8b	-0.40514788
74	0x3ed5d2b9	0.4176233
75	0x3e4ac5b9	0.19801988
76	0xbe5bae70	-0.21453261
77	0x3dbb0085	0.091309585
78	0x3e8af75f	0.27141854
79	0xbe924268	-0.2856629
80	0xbd665fa1	-0.056243543
81	0x3e5e06fe	0.21682355
82	0x3e867aee	0.26265663
83	0x3ebf95ae	0.37418884
84	0x3e8d73fd	0.27627555
85	0xbe9c9906	-0.30585498
86	0xbea70fdd	-0.3262929
87	0x3e5c363a	0.21505061
88	0xbec8f192	-0.39246804
89	0x3ea26a66	0.317218
90	0x3dcdb1f9	0.10043711
91	0xbeba1cb3	-0.3635002
92	0xbd38f901	-0.045159344
93	0x3ead885a	0.3389309
94	0xbdc805a7	-0.09766703
95	0xbe20e25c	-0.15711349
96	0x3e59b8e4	0.21261936
97	0x3c5648ba	0.013078863
98	0x3ec05ba5	0.3756992
99	0xbe6743a8	-0.22584403
100	0x3d349a91	0.04409272
101	0xbea5362a	-0.32267886
102	0x3e26e52c	0.1629836
103	0xbd4e6602	-0.05039025
104	0x3e000c56	0.12504706
105	0xbcbd456d	-0.023104394
106	0x3e8146ce	0.25249332
107	0x3ec062f3	0.37575492
108	0x3e1d2d80	0.15349388
109	0x3ec746a3	0.3892108
110	0x3e97142f	0.29507586
111	0xbe4d7165	-0.20062788
112	0xbd4ee0e7	-0.050507452
113	0xbe4b66d4	-0.19863445
114	0x3e469179	0.19391431
115	0x3ea0e46c	0.31424272
116	0xbe304b96	-0.17216334
117	0xbeb383a4	-0.3506137
118	0xbea7baaa	-0.327596
119	0x3e0ddf9d	0.13854833
120	0xbde38aa8	-0.11110431
121	0xbe781334	-0.24226075
122	0x3daefe14	0.08544555
123	0xbe8b5c57	-0.27218887
124	0x3e55926e	0.2085664
125	0x3ecf5ff8	0.40502906
126	0xbc6e898e	-0.014559163
127	0x3eaf8928	0.3428433
128	0x3ed12263	0.40846547
129	0x3dccd2de	0.10001157
130	0xbe116a0e	-0.14200613
131	0x3e779f65	0.24181898
132	0xbc5d05ed	-0.013490182
133	0x3e023645	0.12716015
134	0xbebc67cf	-0.3679795
135	0xbd099e25	-0.033598084
136	0x3dade378	0.08490652
137	0xbe6108bb	-0.21975987
138	0x3d9b2cec	0.075769275
139	0xbe84ed9c	-0.25962532
140	0xbe304325	-0.17213114
141	0xbe0379ab	-0.12839381
142	0x3e88fd98	0.26755977
143	0x3d49247d	0.049107064
144	0xbe8fdf6c	-0.28100145
145	0xbe8aec78	-0.27133536
146	0x3e0ad7e2	0.13558915
147	0x3e7f04cc	0.24904174
148	0x3e79a6d6	0.24380049
149	0x3e7f1ed2	0.24914101
150	0x3e85ffe4	0.26171792
151	0x3e9b5eff	0.30345914
152	0xbd8adfe3	-0.06780984
153	0x3e935622	0.28776652
154	0xbdbf273d	-0.09333656
155	0x3ea962e3	0.33083257
156	0xbd98378f	-0.07432472
157	0xbe1bd602	-0.15218356
158	0x3da0409a	0.07824822
159	0x3e804f5e	0.25060552
160	0x3ec3a4b4	0.38211596
161	0x3dd9360d	0.106060125
162	0xbe9e133d	-0.30874053
163	0x3ecde55c	0.4021405
164	0x3e751efa	0.23937598
165	0xbe571890	-0.21005464
166	0xbe9a2062	-0.3010283
167	0xbdced54e	-0.100992784
168	0x3dcd2ca4	0.1001828
169	0xbe0fdbaf	-0.14048646
170	0x3ebc1b38	0.36739516
171	0xbdcc7d98	-0.099848926
172	0x3dc4bb5e	0.0960605
173	0xbd87627e	-0.06610583
174	0x3ecb9cf7	0.39768192
175	0x3e6f97e7	0.2339779
176	0x3c86f68a	0.01647498
177	0x3e9014e9	0.28140953
178	0x3dccd274	0.10001078
179	0xbd1f0ae6	-0.038828753
180	0xbea36059	-0.31909445
181	0xbe38bdf2	-0.18041208
182	0xbc92833b	-0.017884841
183	0xbe87625a	-0.26442224
184	0xbe6db10d	-0.23212071
185	0x3e531b7a	0.2061595
186	0xbd6f6ce2	-0.058453448
187	0xbd9e2ce8	-0.07723409
188	0xbc0f3d27	-0.008742607
189	0xbeb1f179	-0.34754542
190	0x3e823335	0.25429693
191	0x3e132b79	0.14372052
192	0x3e993bee	0.29928535
193	0xbe8a6340	-0.27028847
194	0x3ea7f29e	0.3280229
195	0xbc0ec546	-0.008714026
196	0x3eafd403	0.3434144
197	0x3e8ea6ba	0.27861577
198	0x3ebe4a90	0.37166262
199	0x3e293871	0.16525437
200	0x3df54b10	0.11977208
201	0x3e67c3c3	0.22633271
202	0x3ea7def1	0.32787278
203	0x3da3411b	0.07971402
204	0x3ecd8c2b	0.40146002
205	0xbcc7df4a	-0.024398465
206	0xbd5bee0a	-0.05369381
207	0xbd8ad61d	-0.0677912
208	0xbe70040b	-0.23439042
209	0x3e1c883b	0.15286343
210	0x3e14142f	0.14460824
211	0xbea2802d	-0.31738415
212	0x3dc13d70	0.094355464
213	0xbe7274f0	-0.2367742
214	0x3ebcd476	0.36880845
215	0xbe8b216d	-0.2717394
216	0xbe93f68b	-0.28899035
217	0x3ea7b565	0.3275558
218	0x3ea6e042	0.3259297
219	0xbe443048	-0.19159043
220	0x3ec838a9	0.39105728
221	0xbbc24776	-0.005928929
222	0xbcb3bc23	-0.021940297
223	0xbc62cbd0	-0.013842538
224	0xbd2b38ae	-0.0418021
225	0x3e4326f5	0.1905783
226	0xbeae4f62	-0.3404494
227	0xbea15cf9	-0.31516245
228	0x3e47dbe1	0.19517471
229	0xbc4811ec	-0.012211304
230	0xbe9498ae	-0.29022735
231	0xbe39d2c0	-0.18146801
232	0x3ebfca12	0.37458855
233	0xbdaed655	-0.08536974
234	0x3d165870	0.036705434
235	0xbe549e7f	-0.20763586
236	0x3d45e54f	0.04831439
237	0x3e1ff239	0.15619744
238	0x3e9a10d9	0.3009098
239	0xbd6ac0c7	-0.057312753
240	0x3c738a2a	0.014864484
241	0xbe1f1d03	-0.15538411
242	0x3e4d1225	0.20026453
243	0xbe376cf8	-0.17912662
244	0xbe495b11	-0.19663645
245	0x3ea20684	0.31645596
246	0x3e633cd5	0.22191174
247	0x3e9b5255	0.30336252
248	0x3ea50330	0.32228994
249	0xbe764398	-0.24049222
250	0xbd3a4c15	-0.045482714
251	0xbdcb0a73	-0.099141024
252	0x3e061491	0.13093783
253	0xbe992656	-0.2991206
254	0xbdf204d7	-0.118173294
255	0x3e6849fc	0.22684473

fc1.bias f4 [64]
0	0x3e83e24a	0.25758582
1	0xbe1e35a3	-0.15450148
2	0x3e8b0c10	0.2715764
3	0xbd67c14f	-0.056580838
4	0xbe9a9835	-0.3019425
5	0x3e1d3bc9	0.15354837
6	0x3e9bafb5	0.3040749
7	0xbea670b9	-0.32507876
8	0xbe968a8d	-0.2940258
9	0x3e9b1fa6	0.30297583
10	0x3e7425c0	0.23842525
11	0xbc408dca	-0.011752555
12	0xbe2ee29b	-0.1707863
13	0x3dc2c78e	0.09510718
14	0x3dee2912	0.11628927
15	0x3dd14069	0.102173634
16	0x3e1c8d10	0.15288186
17	0xbebf882a	-0.37408572
18	0xbd9ed2c8	-0.07755047
19	0x3eab14f5	0.33414426
20	0xbe785413	-0.24250822
21	0xbe8ee942	-0.27912337
22	0x3ecd7bd9	0.4013355
23	0xbeca410e	-0.39502758
24	0xbeac1d08	-0.336159
25	0x3e14c3f7	0.1452788
26	0x3e05c470	0.13063216
27	0xbe0e7b7e	-0.13914296
28	0xbe4965a0	-0.19667673
29	0xbe721ea7	-0.23644505
30	0x3ec3c2e3	0.38234624
31	0x3e0f62d2	0.1400254
32	0xbe471924	-0.19443184
33	0xbddae7af	-0.106887214
34	0x3eb8f823	0.36126813
35	0x3eaf95ee	0.34294075
36	0xbd451b94	-0.048122004
37	0x3d3dc65f	0.04633176
38	0x3eb4ca66	0.35310668
39	0xbe6963b0	-0.22791934
40	0x3d9aa6af	0.075513236
41	0x3e6f35ee	0.23360416
42	0xbe02210d	-0.1270792
43	0xbe8c7bc4	-0.27438176
44	0xbe78b357	-0.24287163
45	0xbe4435c6	-0.19161138
46	0x3dbb9419	0.09159107
47	0xbeb9bce5	-0.36276928
48	0x3dfde086	0.1239634
49	0xbe9ca268	-0.30592656
50	0xbdbbc7f4	-0.091689974
51	0xbe89a9f6	-0.26887482
52	0xbeba684f	-0.36407706
53	0xbdf27ef8	-0.118406236
54	0xbdb659a0	-0.08903813
55	0x3ecf59ef	0.404983
56	0x3e65f3a9	0.2245623
57	0xbe491cb6	-0.19639859
58	0xbe8a3e1c	-0.2700051
59	0x3dabc1d9	0.08386583
60	0x3ec92486	0.39285678
61	0x3e014b05	0.12626274
62	0x3ce2ff1b	0.027709534
63	0xbdd0098b	-0.1015807

norm1.weight f4 [64]
0	0x3f7f944f	0.99835676
1	0x3f800000	1.0
2	0x3f7f0a9b	0.9962556
3	0x3f7f4fa7	0.99730915
4	0x3f806da4	1.003346
5	0x3f7f4a47	0.99722713
6	0x3f7fcc51	0.9992114
7	0x3f81287d	1.0090481
8	0x3f800000	1.0
9	0x3f7ec027	0.9951195
10	0x3f809344	1.0044942
11	0x3f800000	1.0
12	0x3f816886	1.0110023
13	0x3f80268b	1.0011762
14	0x3f80874d	1.004129
15	0x3f80a7de	1.0051229
16	0x3f7e86dd	0.99424535
17	0x3f7daab8	0.9908862
18	0x3f80372e	1.001684
19	0x3f80c2d6	1.0059459
20	0x3f812b80	1.00914
21	0x3f80a80f	1.0051287
22	0x3f7f447d	0.9971388
23	0x3f7fb24f	0.9988145
24	0x3f804ecf	1.002405
25	0x3f801fe7	1.0009736
26	0x3f806adf	1.0032614
27	0x3f800000	1.0
28	0x3f800000	1.0
29	0x3f8021e1	1.0010339
30	0x3f7fe907	0.99964947
31	0x3f80d9f0	1.0066509
32	0x3f7f0bc9	0.9962736
33	0x3f7fe24d	0.9995468
34	0x3f80cc0d	1.0062271
35	0x3f7e2b8e	0.9928521
36	0x3f8025ab	1.0011495
37	0x3f800000	1.0
38	0x3f8017bf	1.0007247
39	0x3f7fea4f	0.999669
40	0x3f7e5994	0.99355435
41	0x3f7ef849	0.99597603
42	0x3f8034ac	1.0016074
43	0x3f800000	1.0
44	0x3f800000	1.0
45	0x3f81118f	1.0083483
46	0x3f7f3388	0.99688005
47	0x3f7e782c	0.9940212
48	0x3f800000	1.0
49	0x3f7e07ff	0.9923095
50	0x3f800000	1.0
51	0x3f809f57	1.0048627
52	0x3f80d797	1.0065793
53	0x3f800000	1.0
54	0x3f800000	1.0
55	0x3f7fa9b3	0.99868315
56	0x3f80519f	1.0024909
57	0x3f800000	1.0
58	0x3f800000	1.0
59	0x3f801ef0	1.0009441
60	0x3f80ba68	1.0056887
61	0x3f7ee2e0	0.99564934
62	0x3f800000	1.0
63	0x3f80b551	1.0055333

norm1.bias f4 [64]
0	0xbb068590	-0.0020526387
1	0x00000000	0.0
2	0xbb54eee5	-0.0032491025
3	0xba900681	-0.0010988266
4	0x3ac5c9d2	0.0015090054
5	0x3ba0106d	0.0048847706
6	0xba099405	-0.0005248192
7	0x3c441884	0.011968736
8	0x00000000	0.0
9	0xbbdfd452	-0.0068307305
10	0x3ba83820	0.0051336437
11	0x00000000	0.0
12	0x3bc7db72	0.006099158
13	0x3a6be57d	0.0008998735
14	0x3b35b885	0.002772839
15	0x3b97cc08	0.0046324767
16	0xbb6c2456	-0.00360324
17	0xbc0bee29	-0.0085406685
18	0x398638f9	0.0002560092
19	0x3b4ff3f1	0.0031731094
20	0x3c1b73b8	0.009488039
21	0x3c078d7a	0.008273477
22	0xbb43fcb2	-0.0029905257
23	0xbb40a79a	-0.0029396773
24	0x3b1800cc	0.0023193834
25	0x3af5ec09	0.001876236
26	0x3b94751a	0.004530561
27	0x00000000	0.0
28	0x00000000	0.0
29	0x3b9124e0	0.0044294447
30	0x3b8769fc	0.0041325074
31	0x3be6da5b	0.007045073
32	0xbb8140a5	-0.003944474
33	0xba3b2bb1	-0.00071399944
34	0x3ba5b5de	0.0050570806
35	0xbc1f6ae0	-0.009730071
36	0xb8f76be0	-0.00011797971
37	0x00000000	0.0
38	0xbaa8e665	-0.0012886046
39	0x39e8ed9a	0.00044427515
40	0xbba37965	-0.0049888366
41	0xbb86b1d2	-0.0041105533
42	0x3b116bed	0.0022189573
43	0x00000000	0.0
44	0x00000000	0.0
45	0x3b047678	0.0020212214
46	0xbb4bfa5c	-0.0031124568
47	0xbbaaeb06	-0.0052160053
48	0x00000000	0.0
49	0xbbdca014	-0.00673295
50	0x00000000	0.0
51	0x3b8fba00	0.0043861866
52	0x3b6a03c8	0.003570782
53	0x00000000	0.0
54	0x00000000	0.0
55	0xbabd312f	-0.0014434214
56	0x3a862d38	0.0010236865
57	0x00000000	0.0
58	0x00000000	0.0
59	0xbaef526d	-0.0018258818
60	0x3bdf35d2	0.006811836
61	0xbbc7ed5d	-0.006101294
62	0x00000000	0.0
63	0x3acc73b3	0.0015598446

fc2.weight f4 [64, 64]
0	0x3cf80fe6	0.030281018
1	0x3db36482	0.08759405
2	0x3de440e1	0.11145187
3	0x3cb477b8	0.022029743
4	0xbdc3c989	-0.09559924
5	0xbded99e2	-0.116016164
6	0x3ba972ef	0.005171172
7	0x3d69edbd	0.05711149
8	0xbdaa0188	-0.08301073
9	0x3d3befba	0.045882918
10	0xbb74078a	-0.003723594
11	0x3c3ec870	0.011644468
12	0x3cb83ac4	0.02248896
13	0x3de3a2bd	0.11115024
14	0x3dd1f7ae	0.10252319
15	0xbdbb9411	-0.09159101
16	0x3d8742ba	0.06604524
17	0x3b42c76e	0.002972092
18	0x3d429258	0.047502846
19	0x3dee02a6	0.11621599
20	0x3dad9e6a	0.08477481
21	0x3bff2ce8	0.0077873357
22	0x3dad0f04	0.0845013
23	0x3c263ec7	0.010146803
24	0xbdd49b8c	-0.10381231
25	0xbdd9d13a	-0.1063561
26	0x3dd1eee2	0.102506414
27	0xbd3c7e38	-0.04601881
28	0x3dd4dcdc	0.10393688
29	0x3da95e04	0.08269885
30	0x3da490db	0.080354415
31	0xbdd63aad	-0.1046041
32	0x3db4a045	0.088196315
33	0xbdedf981	-0.11619855
34	0xbd8a227b	-0.06744858
35	0x3df4219c	0.11920473
36	0x3c856527	0.016283585
37	0xbde4e1f6	-0.11175911
38	0xbd91a6c9	-0.0711189
39	0x3d87427b	0.06604477
40	0xbce6412a	-0.028107245
41	0xbd516720	-0.05112374
42	0xbdf6b330	-0.12045896
43	0xbd84a2aa	-0.06476338
44	0x3dc1ae00	0.09457016
45	0x3b04286d	0.0020165697
46	0x3dbc0607	0.09180837
47	0xbd50c1c9	-0.050966058
48	0xbdc0ae7e	-0.09408282
49	0x3d5db74c	0.054129884
50	0x3dcde89e	0.10054134
51	0xbd73c3dc	-0.059512958
52	0x3dbb8939	0.091570325
53	0x3d635f84	0.055511013
54	0x3d8aa74e	0.06770192
55	0x3dbe8c8c	0.09304151
56	0xbd4919d2	-0.04909689
57	0x3dfccb68	0.12343484
58	0x3dfd24b8	0.12360519
59	0x3dd3e9e0	0.103473425
60	0x3df8918b	0.12137135
61	0xbd7b34a3	-0.061329495
62	0xbd9eadc0	-0.07747984
63	0xbb98be6d	-0.0046613724
64	0xbd1973fc	-0.037464127
65	0xbcc7ab48	-0.024373665
66	0xbdf33b3b	-0.11876532
67	0xbd7d98c7	-0.061913278
68	0x3d012bad	0.031535793
69	0xbd0379c2	-0.03209854
70	0xbdf8ae47	-0.12142616
71	0x3d5377c4	0.05162789
72	0xbd2a7128	-0.04161182
73	0xbda2f1a0	-0.079562426
74	0xbd896fb3	-0.06710758
75	0x3dbd7a70	0.09251869
76	0xbd9256e9	-0.07145483
77	0x3d9fa1e3	0.07794549
78	0xbd8feb90	-0.07027352
79	0xbd7a1980	-0.061059475
80	0xbd4a81fc	-0.04944037
81	0xbc9681d7	-0.01837246
82	0xbd4c9557	-0.04994711
83	0xbd00af5d	-0.03141724
84	0x3d2c2bfb	0.04203413
85	0x3d8a62ad	0.06757102
86	0x3d8a75c4	0.06760743
87	0x3d4a1bd9	0.049342964
88	0xbd94034f	-0.072271936
89	0xbc567f64	-0.013091896
90	0xbd4cbbc2	-0.049983747
91	0x3dbf827a	0.09351058
92	0xbda4a676	-0.080395624
93	0xbd999688	-0.07499415
94	0xbda47a75	-0.08031169
95	0xbdf74fea	-0.12075789
96	0xbc187af0	-0.009306654
97	0x3c1df04e	0.009639813
98	0x3c18636e	0.00930105
99	0x3de848cf	0.11342012
100	0xbde81153	-0.11331429
101	0x3b1f0200	0.0024262667
102	0x3cf4c1e4	0.02987761
103	0x3d7787fa	0.06043241
104	0xbd5ea35b	-0.054355007
105	0xbd51c73c	-0.051215395
106	0x3dc66ecb	0.09689101
107	0x3dd23b8a	0.102652624
108	0xbd74b7b8	-0.05974552
109	0xbd45c38f	-0.048282202
110	0x3ca2fb25	0.019895146
111	0x3dd243b0	0.102668166
112	0xbda609b2	-0.08107318
113	0xbd0549a7	-0.032540943
114	0x3d843540	0.06455469
115	0xbc999e33	-0.018752193
116	0xbddda3d5	-0.10822264
117	0xbdd897ee	-0.10575853
118	0x3dab7260	0.08371425
119	0xbcc36c75	-0.023855427
120	0xbd3e330c	-0.0464354
121	0x3dfbebfe	0.12300871
122	0xbd76c8ac	-0.06024997
123	0xbdf813a5	-0.12113122
124	0x3cb83dfa	0.02249049
125	0x3d3f49dc	0.046701297
126	0x3d55b90c	0.052178428
127	0xbd1e11fe	-0.038591377
128	0x3db25fdc	0.0870969
129	0xbd0b3528	-0.03398624
130	0x3dbd5226	0.09244184
131	0xbdb266e2	-0.087110296
132	0x3db10be6	0.086448476
133	0xbd43eccd	-0.047833253
134	0x3d42b461	0.047535304
135	0xbdd05065	-0.10171584
136	0xbde0eafe	-0.10982321
137	0x3cb36424	0.021898337
138	0x3d7bc1ed	0.06146424
139	0x3de227f0	0.11042774
140	0xbd6722e8	-0.056429774
141	0x3d61524b	0.05501012
142	0x3c8b8061	0.01702899
143	0xbdca39d6	-0.098743126
144	0xbd809894	-0.06279102
145	0x3dd90eec	0.10598549
146	0xbc7652b1	-0.015034364
147	0x3df06f88	0.11740023
148	0xbd49275e	-0.04910981
149	0xbc0f3dec	-0.008742791
150	0xbd1db9bf	-0.03850722
151	0xbddf27f9	-0.10896296
152	0x3d5dac22	0.054119237
153	0xbe0209b3	-0.12699012
154	0xbdcc4dfc	-0.09975812
155	0xbd85d7fa	-0.06535335
156	0xbdc46e86	-0.09591393
157	0x3db8281b	0.089920245
158	0x3d88b382	0.066748634
159	0xbde81496	-0.113320515
160	0xbd925f6a	-0.07147105
161	0xbddf6479	-0.109078355
162	0x3cd8fa39	0.026486503
163	0xbd94fb99	-0.07274551
164	0x3d384ac6	0.044993185
165	0x3c542700	0.012948751
166	0x3d63301a	0.055465795
167	0x3d79c220	0.060976148
168	0xbddfbdee	-0.10924898
169	0xbc825c86	-0.01591326
170	0xbd99eca9	-0.075158425
171	0xbc8d33c8	-0.017236605
172	0x3d2d0024	0.042236462
173	0x3c1898d9	0.0093137855
174	0x3d1490d4	0.03627093
175	0xbcaf729c	-0.021416955
176	0x3dfbaea4	0.122891694
177	0x3df46c5d	0.11934731
178	0x3b314580	0.0027049482
179	0xbd020875	-0.031746347
180	0x3d9ea14e	0.0774561
181	0xbdb63a54	-0.08897844
182	0xbd5bf278	-0.053698033
183	0xbc1210b9	-0.00891512
184	0x3d92e832	0.07173194
185	0x3de35472	0.11100091
186	0xbdf5c3a0	-0.12000203
187	0xbda01bf4	-0.07817832
188	0x3db9effb	0.09078976
189	0xbdd74bf2	-0.10512532
190	0xbda4567e	-0.080243096
191	0xbd3ff906	-0.046868347
192	0x3cd3fb21	0.025876584
193	0xbaf91e00	-0.0019006133
194	0x3d813d66	0.06310539
195	0x3dc51e13	0.09624877
196	0x3dd7d9ec	0.10539612
197	0x3db5435e	0.0885074
198	0xbd1bd3a5	-0.038043637
199	0x3d78181a	0.06056986
200	0x3db4b66a	0.08823855
201	0x3daaac5a	0.08333655
202	0x3ca434e8	0.020044759
203	0xbdac87d6	-0.08424346
204	0x3c8e6d97	0.01738624
205	0x3d6add6b	0.057340067
206	0xbc9659f2	-0.018353436
207	0x3d9c7208	0.07638937
208	0xbca30294	-0.01989869
209	0x3c3d70d5	0.011562546
210	0xbca68bfa	-0.020330418
211	0xbdd078fa	-0.101793244
212	0x3d8acab9	0.067769475
213	0xbd666333	-0.056246947
214	0xbde3418a	-0.11096485
215	0xbd4c34d3	-0.049855065
216	0x3ce0ee47	0.02745737
217	0xbdb9bce6	-0.09069233
218	0xbd6a909b	-0.057266813
219	0xbd4d6aac	-0.05015056
220	0x3dbc9af2	0.09209241
221	0x3e03eade	0.12882563
222	0x3c79d231	0.015247867
223	0x3d2242c7	0.039614465
224	0xbd298409	-0.041385684
225	0xbd50238f	-0.05081516
226	0xbdcad54f	-0.09903967
227	0x3d98e18d	0.074648954
228	0xbd5846e8	-0.052801996
229	0xbda9d0fa	-0.08291812
230	0xbcf5461b	-0.029940655
231	0xbd96b8b7	-0.0735945
232	0x3d143cf5	0.036190946
233	0xbd797fea	-0.060913004
234	0xbcdfb4e4	-0.027307935
235	0xbc9c80d8	-0.019104406
236	0x3df827f4	0.121169955
237	0x3da29f2c	0.07940516
238	0xbd54be1d	-0.05193912
239	0x3c516773	0.012781012
240	0x3c841b30	0.016126245
241	0xbd6b9db6	-0.05752345
242	0xbcd4f5b8	-0.025996074
243	0x3d2b3660	0.041799903
244	0xbc2d9e0c	-0.010596763
245	0x3d85e9e2	0.0653875
246	0xbc740070	-0.014892682
247	0xbd8fc50d	-0.07020006
248	0xbd82ef73	-0.063933276
249	0x3db2dc62	0.08733441
250	0x3c2e1d10	0.010627046
251	0x3dd12121	0.10211397
252	0x3de54cbe	0.11196278
253	0x3b6618d1	0.0035110007
254	0x3d6db3b4	0.058032706
255	0x3df0bd8b	0.117549025

fc2.bias f4 [64]
0	0xbda87f25	-0.08227376
1	0x3da446cf	0.08021318
2	0xbd370425	-0.044681687
3	0x3d71183e	0.05886101
4	0xbd780a8a	-0.060556926
5	0xbdfaef8a	-0.1225272
6	0x3d52123b	0.051286917
7	0xbd61d1d5	-0.055131752
8	0x3d1d24cc	0.03836517
9	0x3dabba36	0.08385126
10	0xbe0146e3	-0.12624697
11	0x3d85ef52	0.06539787
12	0x3a87ab6e	0.0010350773
13	0xbd787e81	-0.06066752
14	0x3d51d23d	0.05122589
15	0xbded291e	-0.11580108
16	0x3d18261a	0.03714571
17	0x3db76e3d	0.08956573
18	0xbce475b0	-0.027888149
19	0xbca55af7	-0.020184977
20	0x3cd4c8d5	0.02597467
21	0x3da2dfe7	0.07952862
22	0x3d8a4727	0.067518525
23	0x3da3c161	0.079958685
24	0x3be53481	0.0069947843
25	0x3d080ab3	0.03321333
26	0x3dd22187	0.10260301
27	0x3d480eab	0.048842113
28	0xbc4e5d84	-0.012595538
29	0x3ce5642e	0.028001871
30	0xbde18cfd	-0.110132195
31	0x3d4cb147	0.049973752
32	0xbd0b6581	-0.03403235
33	0xbd9f183c	-0.07768294
34	0xbd05d948	-0.03267792
35	0x3de0bbb4	0.109733015
36	0xbda485a6	-0.08033304
37	0xbdf7eca6	-0.12105684
38	0xbdeb98fe	-0.1150379
39	0x3db8f19d	0.09030459
40	0x3dc2412b	0.09485086
41	0x3daede12	0.0853845
42	0xbd90f0d2	-0.07077183
43	0x3b2de3bc	0.0026533445
44	0x3cf00721	0.029300274
45	0x3d3bd43b	0.045856696
46	0x3c47067b	0.012147541
47	0x3d9e16ba	0.077191785
48	0x3cad4f80	0.021156073
49	0xbd80d3ad	-0.06290374
50	0x3da8d164	0.08243063
51	0xbd072ec6	-0.03300359
52	0x3d3bbe6c	0.045835897
53	0x3d14faaa	0.036371864
54	0xbde7f97d	-0.11326883
55	0x3de951f4	0.113925844
56	0x3bc9c0db	0.0061570234
57	0x3db6ad1f	0.08919739
58	0xbd324632	-0.043523975
59	0x3ca73b3d	0.02041399
60	0xbd88f1a2	-0.06686713
61	0x3d6e5725	0.058188576
62	0x3d992b13	0.07478919
63	0x3dd8473a	0.105604604

norm2.weight f4 [64]
0	0x3f801cd5	1.0008799
1	0x3f800000	1.0
2	0x3f7eb805	0.9949954
3	0x3f802a76	1.0012958
4	0x3f7f458a	0.99715483
5	0x3f8026f5	1.0011889
6	0x3f7e3881	0.9930497
7	0x3f80c142	1.0058978
8	0x3f809d5a	1.004802
9	0x3f8013c9	1.0006038
10	0x3f7f7f33	0.99803466
11	0x3f801c1e	1.0008581
12	0x3f800923	1.0002788
13	0x3f800000	1.0
14	0x3f7faec4	0.99876046
15	0x3f7f1cad	0.9965313
16	0x3f8011e5	1.0005461
17	0x3f7dd343	0.99150485
18	0x3f800000	1.0
19	0x3f802a32	1.0012877
20	0x3f800000	1.0
21	0x3f800000	1.0
22	0x3f800000	1.0
23	0x3f7f5920	0.9974537
24	0x3f7f7013	0.99780387
25	0x3f8098af	1.0046595
26	0x3f802923	1.0012554
27	0x3f7fa8f0	0.99867153
28	0x3f8047eb	1.0021948
29	0x3f7fd789	0.99938256
30	0x3f800000	1.0
31	0x3f7fdfb7	0.99950737
32	0x3f80f94a	1.0076077
33	0x3f8093f5	1.0045153
34	0x3f800000	1.0
35	0x3f7e68fa	0.9937893
36	0x3f80c017	1.0058621
37	0x3f7ffde2	0.9999677
38	0x3f7f110f	0.99635404
39	0x3f806b69	1.0032779
40	0x3f800000	1.0
41	0x3f7edeb5	0.99558574
42	0x3f8198c0	1.0124741
43	0x3f7e881c	0.99426436
44	0x3f7f53a9	0.9973703
45	0x3f7f1f02	0.9965669
46	0x3f8052d9	1.0025283
47	0x3f7f6381	0.99761206
48	0x3f7f2e62	0.9968015
49	0x3f805639	1.0026313
50	0x3f7e7f21	0.99412733
51	0x3f805ee9	1.0028964
52	0x3f7e44f0	0.9932394
53	0x3f7fbaea	0.99894583
54	0x3f7f3b25	0.9969962
55	0x3f801450	1.0006199
56	0x3f800aca	1.0003293
57	0x3f7eeb7d	0.99578077
58	0x3f814476	1.0099018
59	0x3f7fe12b	0.99952954
60	0x3f800000	1.0
61	0x3f806dfd	1.0033566
62	0x3f807056	1.0034282
63	0x3f7fad3d	0.99873716

norm2.bias f4 [64]
0	0x3b559c2a	0.0032594302
1	0x00000000	0.0
2	0xbbc611b3	-0.0060445904
3	0xbac2ec02	-0.0014871361
4	0xbb27f3ff	-0.002562761
5	0xba9a691a	-0.001178059
6	0xbc029c06	-0.007971769
7	0x3bc48adb	0.005997998
8	0x3bdbef35	0.0067118653
9	0xba139c41	-0.00056308886
10	0xbb36ea75	-0.0027910743
11	0xba821626	-0.0009924814
12	0x3b89f461	0.0042100404
13	0x00000000	0.0
14	0xb82f4d25	-4.1795098e-05
15	0xbba5b1e3	-0.005056606
16	0xb80d5fb3	-3.3706146e-05
17	0xbc1578d3	-0.009123045
18	0x00000000	0.0
19	0x3b4f41df	0.0031624956
20	0x00000000	0.0
21	0x00000000	0.0
22	0x00000000	0.0
23	0xb99bfccf	-0.0002975226
24	0x3a867ea1	0.0010261127
25	0x3c0821e5	0.008308862
26	0xb889f5a7	-6.5784254e-05
27	0x3a5fe6d8	0.00085411733
28	0x3bdc7e48	0.006728921
29	0x38efeada	0.000114401526
30	0x00000000	0.0
31	0xba6c289f	-0.00090087386
32	0x3bf67ad0	0.0075219646
33	0x3ae92b19	0.0017789333
34	0x00000000	0.0
35	0xbbed2d9c	-0.007238103
36	0x3bc2a71e	0.005940332
37	0x38d5d074	0.00010195459
38	0xbb9a398d	-0.0047065676
39	0x3a3e0f21	0.0007250179
40	0x00000000	0.0
41	0xbafd72d6	-0.0019336592
42	0x3c26be4c	0.010177206
43	0xbbafb31d	-0.005361928
44	0xbb2d9325	-0.002648541
45	0xbb187bc0	-0.002326712
46	0x3b3fb77d	0.0029253655
47	0xbb01729d	-0.0019752153
48	0xbb9a18fb	-0.004702685
49	0x3b3d5d11	0.0028894583
50	0xbbaf08ce	-0.005341626
51	0x3b44ae04	0.0030010948
52	0xbbd81af3	-0.0065950095
53	0xbb78704f	-0.0037908738
54	0xbba47b4d	-0.0050195814
55	0x3b6c34b2	0.003604215
56	0xb986d942	-0.0002572034
57	0xbbe86210	-0.007091768
58	0x3bff4551	0.0077902456
59	0x3b3c499c	0.0028730398
60	0x00000000	0.0
61	0x3afe435e	0.0019398739
62	0xbaf9afcd	-0.0019049585
63	0xbb37c6ec	-0.002804215

vf.weight f4 [1, 64]
0	0x3d9dbc04	0.07701877
1	0x3db7b684	0.08970359
2	0x3cd602aa	0.026124317
3	0x3df65b03	0.12029078
4	0xbd377bcf	-0.044795807
5	0x3df32a85	0.11873344
6	0x3db2ea62	0.08736111
7	0x3d277ca4	0.04089035
8	0xbdb091a8	-0.08621532
9	0x3d312eb1	0.04325742
10	0x3dcbcf97	0.09951704
11	0xbd872ede	-0.06600736
12	0x3d32d712	0.04366214
13	0x3d682fe0	0.056686282
14	0x3df7a09f	0.12091183
15	0x3c9d6276	0.019211989
16	0x3de82842	0.113358036
17	0x3d9b4720	0.075819254
18	0x3da6eb42	0.081503406
19	0xbd56e624	-0.052465573
20	0x3d62bc98	0.05535564
21	0xbd8fe9c2	-0.07027008
22	0xbd79145c	-0.06081043
23	0xbdbdcc34	-0.09267464
24	0xbd70fef1	-0.05883688
25	0xbd4a0f3a	-0.049330927
26	0xbdd2fd89	-0.10302264
27	0x3c6ba282	0.014382007
28	0xbdac41c2	-0.0841098
29	0x3da340e5	0.07971362
30	0x3a87d900	0.0010364354
31	0xbdc946cd	-0.09827957
32	0xbd8233e7	-0.06357556
33	0xbde7599c	-0.112963885
34	0x3dbbd138	0.09170765
35	0xbd780f01	-0.060561184
36	0x3db1d8e3	0.08683946
37	0x3de6f47c	0.112771004
38	0xbd9965ff	-0.07490157
39	0x3aad4f0c	0.001322241
40	0x3d013b54	0.03155072
41	0x3cf9c5d1	0.030489834
42	0x3dc5116d	0.09622464
43	0xbdc767d8	-0.097366035
44	0x3cb0ddf6	0.021590214
45	0xbdaa29e4	-0.08308771
46	0x3d3649d2	0.044503994
47	0xbc82e7df	-0.015979705
48	0xbde2aff3	-0.11068716
49	0x3df7099e	0.12062381
50	0x3dcd4cd2	0.10024418
51	0x3d9c1f85	0.076231994
52	0x3cafe58d	0.021471763
53	0x3df7084b	0.12062129
54	0x3dd636a0	0.10459638
55	0xbbb288f0	-0.005448453
56	0xbdb1cde0	-0.08681846
57	0x3dacf40c	0.08444986
58	0x3d70462d	0.058660675
59	0xbdf37495	-0.11887471
60	0xbd006c80	-0.031353474
61	0x3d891982	0.06694318
62	0x3ddb3173	0.10702791
63	0xbd0ade0c	-0.033903167

tactic_head.weight f4 [3, 64]
0	0x3db80c59	0.0898673
1	0xbdcfa728	-0.101393044
2	0xbc500b7a	-0.012698049
3	0xbccabc1a	-0.024747897
4	0xbcfce2d4	-0.030869879
5	0xbcfe33c0	-0.031030536
6	0xbd7a5c40	-0.061123133
7	0xbd91c2c2	-0.07117225
8	0xbdc700f2	-0.09716977
9	0xbdcad532	-0.09903945
10	0x3a9205cf	0.0011140647
11	0xbde6b65a	-0.112652496
12	0xbd83ba8d	-0.06432066
13	0xbda374fe	-0.07981299
14	0xbdc06b7c	-0.09395501
15	0xbddacb84	-0.10683349
16	0x3d632bb4	0.0554616
17	0xbd4994bc	-0.04921411
18	0xbdfb9dec	-0.122859806
19	0xbd13c061	-0.03607214
20	0xbca4d950	-0.020123154
21	0xbcaf20e8	-0.021377996
22	0x3d912e74	0.07088938
23	0xbde4a6f3	-0.111646555
24	0x3c9a46ab	0.018832525
25	0xbda0a086	-0.078431174
26	0x3db8eaeb	0.09029182
27	0xbdd44b22	-0.10365893
28	0xbcb02a91	-0.021504672
29	0x3da7978c	0.08183202
30	0x3cb4dab0	0.022076935
31	0xbde9dfa8	-0.11419612
32	0xbd06bed7	-0.032896843
33	0xbdfc419b	-0.12317201
34	0xbb9e5e20	-0.004832998
35	0xbdf50de6	-0.119655415
36	0x3ce32aa7	0.0277303
37	0xbd84e43d	-0.064888455
38	0x3d76302b	0.06010453
39	0xbca0ab24	-0.019612856
40	0x3dcc6ba0	0.09981465
41	0x3dc553ff	0.096351616
42	0x3d6c5db5	0.057706553
43	0x3ddeb98f	0.10875236
44	0xbdbde1d8	-0.09271592
45	0xbdb8ed82	-0.09029676
46	0x3deb1c3e	0.11479996
47	0x3d9877f2	0.07444753
48	0x3cd521aa	0.026017029
49	0xbd5a711a	-0.05333052
50	0x3dfd2827	0.12361174
51	0x3cb315e2	0.02186102
52	0x3d3e9f86	0.046538852
53	0xbdaea4d8	-0.08527535
54	0x3dfbf612	0.123027936
55	0xbde2d2b4	-0.11075345
56	0x3d32e6bd	0.04367708
57	0xbdd4b3dd	-0.10385869
58	0xbdc8a98f	-0.09797966
59	0xbdc7fe4e	-0.09765302
60	0xbd7bfd68	-0.061520964
61	0xbd920b94	-0.071311146
62	0xbdc972cb	-0.09836348
63	0x3dd19eb8	0.10235351
64	0x3d297e0f	0.041379984
65	0xbc577f00	-0.013152838
66	0xbd6c4ef6	-0.05769249
67	0xbdf92fb0	-0.12167299
68	0x3dd6cdd7	0.104884796
69	0x3db5800d	0.088623144
70	0x3dc52ba9	0.09627468
71	0xbccd91eb	-0.025093993
72	0xbc139d13	-0.009009617
73	0xbdb8cdca	-0.09023626
74	0x3cbc2c9c	0.02297049
75	0x3da12a7c	0.078694314
76	0xbd6ba3fc	-0.057529435
77	0xbbb64920	-0.0055629164
78	0xbcfa9dc4	-0.030592807
79	0x3d8b5c04	0.0680466
80	0xbd86133c	-0.065466374
81	0xbc76daed	-0.015066844
82	0xbde39296	-0.111119434
83	0xbdc2a313	-0.0950376
84	0xbd7a56b0	-0.061117828
85	0xbd1cf668	-0.03832093
86	0xbd180810	-0.037117064
87	0x3d5eef0c	0.05442719
88	0xbd49a838	-0.04923269
89	0xbdac2200	-0.084049225
90	0x3d500a8e	0.050791316
91	0x3d8beeed	0.06832681
92	0xbdcc2eb7	-0.09969848
93	0xbde938fa	-0.113878205
94	0xbd41259c	-0.047155008
95	0xbcb4f12c	-0.022087656
96	0xbdf9279e	-0.121657595
97	0xbd12bf27	-0.03582683
98	0x3df4c3e8	0.11951429
99	0x3dcc6d4e	0.09981786
100	0xbe056ff6	-0.13030991
101	0xbde3fa0d	-0.11131678
102	0x3d9bd13f	0.0760827
103	0xbc65aa13	-0.0140176
104	0x3b59d580	0.0033238828
105	0x3d2d9bb1	0.042384807
106	0xbd57cc9d	-0.05268537
107	0x3d871595	0.06595913
108	0x3ce7e160	0.02830571
109	0x3dcbb7b3	0.09947147
110	0xbde19af8	-0.11015886
111	0xbc9a0fea	-0.018806417
112	0x3c868fea	0.016426045
113	0xbda2af0e	-0.07943545
114	0x3c9835b2	0.018580291
115	0x3d65ba02	0.056085594
116	0x3cfe9ff4	0.031082131
117	0x3d6372c5	0.055529375
118	0x3ddae1ec	0.106876224
119	0xbcd33170	-0.02578041
120	0xbde327e5	-0.11091594
121	0x3dd23e97	0.10265844
122	0xbdc4f865	-0.0961769
123	0xbe02e61f	-0.12783097
124	0xbcc4ca40	-0.024022222
125	0xbdbfb30a	-0.09360321
126	0xbd260c79	-0.04053924
127	0x3d9dc4ac	0.07703528
128	0x3e06d597	0.13167416
129	0x3d5f61e0	0.0545367
130	0xbd7655ab	-0.060140293
131	0x3cd0b9f5	0.025479296
132	0xbdbfceb4	-0.09365597
133	0x3d642e0f	0.055707987
134	0x3d7dce94	0.061964586
135	0x3d8c09b7	0.068377905
136	0x3e045516	0.12923083
137	0x3ccea836	0.025226694
138	0x3d5116ae	0.05104702
139	0x3d2ff60f	0.04295927
140	0x3c62efed	0.013851148
141	0x3df91ccc	0.12163696
142	0x3d6e4621	0.05817235
143	0xbd8db3e0	-0.06919074
144	0xbd842674	-0.06452647
145	0xbdd95d1e	-0.10613464
146	0xbdccb600	-0.09995651
147	0x3d865973	0.0656003
148	0x3d86c45c	0.06580421
149	0xbdeaf944	-0.11473325
150	0xbd53978c	-0.0516582
151	0x3cf17424	0.029474325
152	0x3c78026d	0.015137297
153	0x3d64f736	0.05589982
154	0xbc84275a	-0.016132046
155	0x3ddb05d9	0.10694475
156	0xbdcd3087	-0.100190215
157	0xbdb6e6cc	-0.0893074
158	0x3dec3e08	0.11535269
159	0x3c04d3c0	0.008107126
160	0x3deca99e	0.115557894
161	0x3d9b8327	0.07593375
162	0x3d9f419e	0.07776187
163	0xbc3968e2	-0.01131651
164	0x3d46387d	0.048393715
165	0xbdca1b68	-0.098685086
166	0x3d961c95	0.0732967
167	0x3dc24289	0.09485347
168	0xbcaa8418	-0.02081494
169	0xbbbc89e9	-0.005753745
170	0x3c44823f	0.011993944
171	0xbbb0a228	-0.0053904243
172	0x3bc63839	0.0060491827
173	0x3d93bc2b	0.072136246
174	0xbbd83614	-0.0065982435
175	0x3d47ef7b	0.04881237
176	0xbd8af097	-0.0678417
177	0xbd20144d	-0.03908186
178	0xbddba001	-0.10723878
179	0x3db7eb51	0.0898043
180	0xbc1ef9d6	-0.00970312
181	0xbdedc0c8	-0.11609036
182	0xbd14efba	-0.036361434
183	0x3d6f97a9	0.058494244
184	0x3de0dfac	0.10980162
185	0xbdd55c79	-0.104180284
186	0x3d464648	0.04840687
187	0x3d1aafd0	0.037765324
188	0x3df32548	0.11872345
189	0xbdda6120	-0.106630564
190	0xbd4ce65b	-0.05002437
191	0xbd5fd8f2	-0.054650255

tactic_head.bias f4 [3]
0	0x3dda8561	0.10669971
1	0xbe082636	-0.13295826
2	0x3c4e72d8	0.012600623

combat_head.weight f4 [3, 64]
0	0xbd5c593a	-0.05379603
1	0x3dd4e1ce	0.10394631
2	0x3df2ce27	0.11855727
3	0x3c9bd1a8	0.01902087
4	0x3dc58c8c	0.09645948
5	0x3d240037	0.040039267
6	0x3dcd0afe	0.10011862
7	0xbc3d8db0	-0.011569425
8	0xbdb62311	-0.08893407
9	0x3d1296a2	0.035788186
10	0xbbacde96	-0.0052755577
11	0xbdb58c2c	-0.08864626
12	0x3de8819e	0.113528475
13	0xbd5b0074	-0.05346723
14	0x3d826acc	0.06368026
15	0x3cdf42e6	0.02725358
16	0x3bb7a598	0.005604457
17	0xbcee61cb	-0.029099366
18	0xbdcfa1ca	-0.10138281
19	0x3c5c7eb2	0.013457941
20	0xbd36a0d8	-0.044586986
21	0x3dc3d162	0.09561421
22	0xbcc3e508	-0.023912922
23	0xbc97132a	-0.018441755
24	0x3d5c6b38	0.05381319
25	0xbdf2672c	-0.11836085
26	0x3d79c25d	0.060976375
27	0xbd4f6f3a	-0.050643183
28	0xbddf3ac4	-0.108998805
29	0x3d4f62a4	0.05063118
30	0xbca09860	-0.019603908
31	0x3d9913e2	0.074744955
32	0xbdde4a56	-0.10854022
33	0x3d555eab	0.052092236
34	0xbd8f48c4	-0.06996301
35	0x3d7a4568	0.061101347
36	0xbcdc6dbd	-0.026907796
37	0xbce7b73c	-0.028285615
38	0xbd2c69ab	-0.04209296
39	0x3dda6388	0.10663515
40	0xbd3b121c	-0.045671567
41	0xbddc744c	-0.10764369
42	0x3c31b229	0.010845699
43	0x3de0cac9	0.10976178
44	0xbd8a229e	-0.06744884
45	0x3c9e83a8	0.019349888
46	0x3b9ad166	0.0047246693
47	0xbd199b59	-0.037501667
48	0xbdebc2d0	-0.11511767
49	0x3c74436f	0.014908656
50	0x3d0febb5	0.035136897
51	0xbdd834fe	-0.105569825
52	0x3cf0d91f	0.029400406
53	0x3e000065	0.1250015
54	0xbd405ef8	-0.04696557
55	0x3cd251fe	0.025673863
56	0xbb848e33	-0.004045272
57	0xbde01619	-0.10941715
58	0xbd89340a	-0.06699379
59	0x3d4b8d98	0.04969558
60	0x3df88ac8	0.121358454
61	0xbd0adffd	-0.033905018
62	0x3da2803d	0.07934616
63	0xbd5075da	-0.050893642
64	0x3d329c07	0.04360583
65	0x3de080ca	0.109620646
66	0x3cff934d	0.031198168
67	0x3df27c4f	0.11840116
68	0x3cb496e9	0.022044616
69	0x3dad2b07	0.084554724
70	0x3d6b1c8b	0.057400268
71	0xbbbbcc23	-0.005731122
72	0xbd8c27a7	-0.068435006
73	0x3db58aae	0.08864342
74	0x3cbab5e6	0.022791814
75	0xbbed248a	-0.007237022
76	0x3dee5dda	0.116389945
77	0xbd6351c0	-0.055497885
78	0x3d8a2b87	0.067465834
79	0xbded27bd	-0.11579845
80	0xbd3f299c	-0.04667054
81	0xbc2e8800	-0.010652542
82	0xbd9ac6e8	-0.075574696
83	0xbcd4d9a8	-0.025982693
84	0xbdc5bf72	-0.09655656
85	0x3ca22700	0.019793987
86	0xbd956f74	-0.072966486
87	0x3d5b5933	0.053551864
88	0xbd4feed8	-0.05076489
89	0xbce4f12a	-0.027947027
90	0x3db657af	0.08903443
91	0x3d9de475	0.0770959
92	0x3c3c1818	0.011480354
93	0x3dc958a1	0.09831358
94	0x3d22f550	0.03978473
95	0xbde4889c	-0.11158869
96	0x3dc8e822	0.09809901
97	0xbd9603f9	-0.073249765
98	0x3dc56c44	0.09639791
99	0x3d809013	0.0627748
100	0x3d4f9063	0.050674807
101	0x3da76004	0.081726104
102	0x3dd7f2f7	0.10544389
103	0x3cef7e67	0.029235078
104	0xbda47270	-0.0802964
105	0xbbd6edbe	-0.006559103
106	0x3df85a1b	0.12126561
107	0xbc9cdaa7	-0.01914723
108	0xbd4dd0af	-0.050247844
109	0x3d310fec	0.043228075
110	0x3b1a7ba5	0.0023572233
111	0xbdde02da	-0.10840388
112	0x3cd6effa	0.026237477
113	0xbcb883fc	-0.022523873
114	0xbcd87e6c	-0.02642747
115	0xbd5754e2	-0.052571185
116	0xbd13bb3d	-0.036067236
117	0xbdc526bd	-0.09626529
118	0xbdeddde9	-0.11614592
119	0xbcce9bac	-0.025220715
120	0x3dbc37b2	0.091903105
121	0xba92be4d	-0.001119563
122	0xbdcf7e98	-0.10131568
123	0x3d3b4b7a	0.045726277
124	0x3d139a10	0.036035597
125	0xbdb96faa	-0.09054501
126	0x3cb467da	0.022022177
127	0xbd7b187f	-0.06130266
128	0xbdcf670c	-0.101270765
129	0xbce74ba0	-0.028234303
130	0x3c2a4c4b	0.010394166
131	0xbd270a8a	-0.040781535
132	0x3d19a5ea	0.037511744
133	0xbc9dc943	-0.019261008
134	0xbd3c8f4d	-0.0460351
135	0xbd92bdb6	-0.07165091
136	0x3d8c6161	0.06854511
137	0xbd5ce7f6	-0.053932153
138	0x3d9d51bf	0.076816075
139	0x3d0676c0	0.032828093
140	0x3dbac4b4	0.091195494
141	0x3d22b090	0.039719164
142	0xbd9b6659	-0.07587881
143	0x3d084b52	0.033274956
144	0x3d4bd08e	0.04975944
145	0xbdb98726	-0.09058981
146	0x3d92ccd4	0.07167974
147	0x3d864468	0.06556016
148	0xbdf2e1ee	-0.11859499
149	0xbde99b0a	-0.114065245
150	0xbd9ed220	-0.07754922
151	0x3dc68d54	0.09694925
152	0x3d6796c2	0.05654026
153	0x3b6a1cdb	0.0035722766
154	0xbd9eba05	-0.07750324
155	0x3d4d3837	0.05010244
156	0x3dad9c4c	0.08477077
157	0x3cfddcd9	0.030989097
158	0xbce6ac10	-0.028158218
159	0x3ca08f6f	0.019599644
160	0xbdafe0f7	-0.085878305
161	0xbdbbc310	-0.091680646
162	0x3d057b98	0.03258857
163	0xbdd8ae0e	-0.10580073
164	0xbd97a4f9	-0.07404513
165	0xbd5b4dc5	-0.053540964
166	0x3d8202ac	0.06348166
167	0xbd7c55cd	-0.061605264
168	0x3dcd185a	0.1001441
169	0xbd932d60	-0.07186389
170	0x3dd52641	0.10407687
171	0xbda8b42a	-0.082374886
172	0x3de7fade	0.11327146
173	0xbd57e625	-0.052709717
174	0xbde8268c	-0.11335477
175	0xbd00cfea	-0.031448282
176	0x3dcfc271	0.10144509
177	0x3ddb0b7b	0.10695549
178	0xbd65847f	-0.05603456
179	0x3dd76615	0.105175175
180	0xbdbc2842	-0.09187366
181	0xbd51fb6e	-0.051265173
182	0xbdd55695	-0.10416905
183	0x3d96c21c	0.07361242
184	0xbdb589f0	-0.088642
185	0x3b7f919d	0.0038996704
186	0x3d743ee7	0.0596303
187	0x3d962de4	0.07332972
188	0xbdeca76e	-0.11555372
189	0xbda87a1e	-0.08226417
190	0xbc59ddd2	-0.013297515
191	0x3dc8e3f9	0.09809107

combat_head.bias f4 [3]
0	0x3cebb5ac	0.028773151
1	0x3ded24cc	0.11579284
2	0xbddf5965	-0.109057225
