bots/HD_PPO/model.pt (torch_old, 28169 bytes, 13 tensors)

fc1.weight f4 [64, 17]
0	0x3d765353	0.060138058
1	0xbe724444	-0.23658854
2	0x3e229ab7	0.15879332
3	0xbe64f148	-0.22357666
4	0x3de6e9ee	0.11275087
5	0xbd8c8aad	-0.06862388
6	0x3e5ebc65	0.21751554
7	0x3e0b7b50	0.13621259
8	0x3c9fcc4b	0.019506594
9	0x3d222945	0.03959014
10	0x3e4009ca	0.18753734
11	0xbe2b0114	-0.1669963
12	0x3e5f9ae8	0.21836436
13	0x3d2489cb	0.040170472
14	0x3c9a945d	0.018869573
15	0xbd24a59c	-0.040197
16	0xbd6c7780	-0.05773115
17	0x3e3be440	0.18348789
18	0x3d5ddc53	0.054165196
19	0xbdf18883	-0.11793616
20	0x3e33d616	0.17562136
21	0xbdc838fd	-0.09776495
22	0x3df09236	0.117466375
23	0x3dfc2406	0.123115584
24	0xbde62b57	-0.11238735
25	0x3dbc04cd	0.09180603
26	0x3dd539f5	0.10411445
27	0x3c2f441c	0.010697391
28	0x3e1dd360	0.15412664
29	0xbe17d967	-0.14829026
30	0xbdfdc0c3	-0.12390282
31	0x3d7260f1	0.05917448
32	0xbe457171	-0.19281556
33	0xbe6fef62	-0.23431161
34	0x3e28fbb9	0.16502275
35	0x3e35ff23	0.17773108
36	0xbe702ff9	-0.234558
37	0xbcb8bb97	-0.022550387
38	0x3e1e0e61	0.15435173
39	0xbe175a14	-0.14780456
40	0xbd251a09	-0.040308032
41	0x3e0f23cf	0.13978504
42	0x3e09b659	0.13448466
43	0x3de6c326	0.1126769
44	0xbd98e97f	-0.07466411
45	0xbe531ad0	-0.20615697
46	0x3e099075	0.13434012
47	0xbe6d6ddb	-0.23186438
48	0xbd3c74f9	-0.04600999
49	0x3df73a8f	0.12071716
50	0x3e2dba14	0.16965514
51	0xbe364475	-0.17799552
52	0xbe408353	-0.18800096
53	0xbc516bfb	-0.012782092
54	0xbd7bb7d8	-0.061454624
55	0x3dc7ce53	0.0975615
56	0x3de42ae0	0.1114099
57	0xbdd1e78e	-0.10249244
58	0x3e11a9a9	0.14224876
59	0xbc9cf180	-0.019158125
60	0xbdd45c8f	-0.10369217
61	0x3e1a31f0	0.15058112
62	0xbe409241	-0.18805791
63	0xbe778335	-0.24171145
64	0xbe06373a	-0.13107005
65	0xbd4cb20a	-0.04997448
66	0xbd2c0ad8	-0.04200253
67	0xbe412939	-0.18863381
68	0x3be42e52	0.0069635296
69	0x3e3c8365	0.18409498
70	0xbdf13440	-0.11777544
71	0x3d79b62e	0.060964756
72	0xbd9e51be	-0.07730435
73	0x3de2e8ed	0.11079583
74	0xbd2d5e8e	-0.042326503
75	0x3e3c09c7	0.18363105
76	0x3e79c275	0.24390586
77	0x3d974abe	0.07387303
78	0x3db4a7bf	0.088210575
79	0x3e3b42b6	0.18287167
80	0x3e4dcadb	0.20096914
81	0xbc8e080e	-0.017337825
82	0xbdbfe4ca	-0.0936981
83	0xbc30e6d3	-0.01079722
84	0xbe6f2a62	-0.23356012
85	0xbe451a06	-0.19248208
86	0x3cea1b36	0.028577428
87	0xbd84e806	-0.064895675
88	0xbe1c4ae6	-0.15262946
89	0x3b0dae54	0.00216188
90	0xbe42f84d	-0.19040032
91	0xbe707d88	-0.23485386
92	0xbe5120e0	-0.20422697
93	0xbd7f5c5d	-0.062343944
94	0x3d5fa5f5	0.05460163
95	0x3e3cb24b	0.18427388
96	0x3c710bc0	0.014712274
97	0x3e611756	0.21981558
98	0x3cf9018c	0.030396245
99	0x3df20552	0.11817421
100	0x3d98e009	0.07464606
101	0xbd2c02f4	-0.041995004
102	0x3c91a41f	0.017778454
103	0x3e063c3d	0.13108917
104	0x3e5e9619	0.21736945
105	0xbd8de728	-0.06928855
106	0x3b824b02	0.003976227
107	0xbe4e2063	-0.20129542
108	0xbe55e532	-0.20888212
109	0x3dfef5ff	0.12449264
110	0x3d1d1254	0.038347557
111	0xbe6476dc	-0.22310966
112	0xbe52edee	-0.20598575
113	0xbe5f56e8	-0.21810496
114	0x3d218f6c	0.03944342
115	0x3e01b528	0.12666762
116	0xbe48245e	-0.19545123
117	0x3c7b39b5	0.015333583
118	0x3dc2a674	0.09504405
119	0xbbcb1f6c	-0.006198814
120	0x3d724e2c	0.05915658
121	0xbd6cb5fe	-0.05779075
122	0xbe5ab566	-0.2135826
123	0x3d52c4b9	0.05145714
124	0xbce56b6f	-0.02800533
125	0xbe344a8b	-0.17606561
126	0x3debdb99	0.11516494
127	0xbdba2177	-0.09088414
128	0x3db6d9b7	0.089282446
129	0xbdafe22d	-0.085880615
130	0xbde870b4	-0.113496214
131	0x3e5fdc0a	0.21861282
132	0x3d9d974b	0.076948725
133	0x3e425756	0.18978629
134	0x3e60728b	0.21918695
135	0x3d48b0d8	0.048996776
136	0xbd8d243e	-0.06891678
137	0x3e5f9014	0.21832305
138	0x3d22444d	0.039615918
139	0x3de8a3f9	0.113594
140	0xbe7125a2	-0.23549512
141	0xbe757a6b	-0.2397248
142	0x3e6b2a65	0.22965391
143	0xbe1899f5	-0.1490248
144	0x3d95af85	0.07308868
145	0xbd8cae34	-0.06869164
146	0xbe4932b4	-0.19648248
147	0x3d90ea38	0.07075924
148	0x3dae8ab4	0.08522549
149	0x3da877e2	0.08225991
150	0x3da9c61f	0.08289742
151	0x3e69dcc9	0.22838129
152	0xbcb73870	-0.022365779
153	0x3dbd0fa5	0.092314996
154	0x3dd235ac	0.10264143
155	0x3e240213	0.16016416
156	0xbe69aeb5	-0.22820552
157	0xbdc1b472	-0.09458245
158	0xbe4ba28d	-0.19886227
159	0xbdb0c8f0	-0.08632076
160	0x3e1f7d92	0.15575245
161	0x3de4bca9	0.111687966
162	0xbce8b731	-0.028407665
163	0xbe2e8d10	-0.17045999
164	0x3e4452fc	0.19172281
165	0xbe608b5a	-0.21928158
166	0xbdc2d83e	-0.09513901
167	0xbe064dd9	-0.13115634
168	0xbb91d44b	-0.004450356
169	0xbe32d3c2	-0.17463592
170	0xbd0dcbc6	-0.03461816
171	0x3da5de17	0.08099001
172	0xbe2b8d56	-0.16753134
173	0x3e33c2cd	0.1755478
174	0x3e09cbcc	0.13456649
175	0xbd37a584	-0.044835582
176	0x3c558f96	0.013034722
177	0x3de1e964	0.11030844
178	0xbd85bfdf	-0.06530737
179	0xbd79be2d	-0.06097238
180	0xbe438bdd	-0.19096322
181	0xbd892042	-0.06695606
182	0x3dccce8d	0.10000334
183	0xbc2851cf	-0.010273411
184	0x3e2a2084	0.16613966
185	0xbddea7c2	-0.10871841
186	0xbdfc897e	-0.12330912
187	0xbe66a6fa	-0.22524634
188	0xbe31a984	-0.17349821
189	0x3e34fb4f	0.17673992
190	0xbd5294b6	-0.051411353
191	0xbdabe1c8	-0.08392674
192	0xbdba0529	-0.090830155
193	0x3e16ef15	0.1473964
194	0x3e219ae6	0.15781745
195	0x3dc3b85d	0.09556649
196	0x3e21d5ff	0.1580429
197	0xbd517e0e	-0.051145606
198	0x3dffc6fc	0.12489125
199	0x3dbf655a	0.09345503
200	0xbe3ba355	-0.18324025
201	0x3cb63b7a	0.022245158
202	0x3ca4c3e4	0.02011294
203	0xbdc1398c	-0.09434804
204	0xbdf3d967	-0.119067006
205	0x3d458828	0.04822555
206	0x3d986368	0.07440835
207	0x3e18fb87	0.149397
208	0x3cb007fd	0.021488184
209	0x3dbc8337	0.09204715
210	0xbe5a44e1	-0.21315338
211	0x3e46c57e	0.19411275
212	0x3e57721f	0.21039627
213	0xbcbeb0af	-0.023277609
214	0x3e1d97d1	0.15389945
215	0xbcc3aae0	-0.02388519
216	0xbe4cfd7f	-0.20018576
217	0xbe2d431f	-0.16920136
218	0xbe0c2243	-0.13684945
219	0x3e251aed	0.16123553
220	0xbcd46b38	-0.025930032
221	0x3e52f985	0.20602997
222	0xbd9341ae	-0.07190262
223	0x3e454895	0.19265969
224	0x3cc9f5c9	0.024653332
225	0xbe723341	-0.23652364
226	0xbce3c42c	-0.027803503
227	0x3d0515ba	0.032491423
228	0x3cb019ed	0.021496737
229	0xbdda04c5	-0.10645441
230	0x3e1bca53	0.152139
231	0x3e4c817d	0.19971271
232	0x3e316a82	0.17325786
233	0xbdd7581d	-0.10514853
234	0x3d344c6c	0.044018194
235	0xbe1392b9	-0.14411439
236	0xbdbaecdb	-0.09127208
237	0xbe69bf2f	-0.22826837
238	0x3e2180cc	0.15771788
239	0xbb4ab3a5	-0.003092983
240	0x3bd26ad8	0.006421428
241	0xbdfe34bf	-0.12412404
242	0xbe39e451	-0.18153502
243	0x3dd5b917	0.10435694
244	0xbe48cd26	-0.19609508
245	0x3dece9c9	0.115680285
246	0x3e11dd62	0.14244607
247	0xbe702658	-0.23452127
248	0xbc50752d	-0.012723249
249	0x3db1f56c	0.08689389
250	0x3e5a12c4	0.21296221
251	0xbd624270	-0.05523914
252	0xbd7b31ab	-0.061326664
253	0xbda8dd87	-0.08245378
254	0xbcf80fb8	-0.030280933
255	0x3e44cecc	0.19219512

fc1.bias f4 [64]
0	0x3d046ce3	0.032330405
1	0x3e3aad66	0.18230209
2	0x3e1ebf87	0.1550275
3	0xbd0d8a34	-0.03455563
4	0x3d889332	0.066687
5	0x3e466098	0.19372785
6	0x3e30ba37	0.17258535
7	0x3d809523	0.062784456
8	0x3e3f4a29	0.18680634
9	0x3db60865	0.0888832
10	0x3e055cbe	0.1302366
11	0xbe6ee55a	-0.23329678
12	0xbd3f8374	-0.046756223
13	0x3dae8085	0.08520607
14	0x3e735fba	0.23766986
15	0xbdf64320	-0.12024522
16	0xbe71019e	-0.23535773
17	0x3e13e039	0.14441003
18	0x3c4e9fdd	0.012611357
19	0xbe0b0158	-0.13574731
20	0x3e74d2c3	0.23908524
21	0xbdfd278b	-0.12361058
22	0xbdf28926	-0.11842565
23	0xbe087708	-0.13326657
24	0x3e73f3d9	0.23823489
25	0x3d09852b	0.033574264
26	0x3e0587e5	0.13040121
27	0xbe1f9ff1	-0.15588357
28	0xbd34aee9	-0.04411212
29	0x3e2b5bce	0.1673424
30	0xbd5698b3	-0.05239172
31	0x3da06c82	0.07833196
32	0xbd5d5911	-0.05404002
33	0xbe713102	-0.23553851
34	0x3c9127c2	0.017719153
35	0x3e6675c3	0.2250586
36	0x3e7300ba	0.23730746
37	0x3dff991e	0.12480377
38	0x3cf45b78	0.029828772
39	0xbe71c259	-0.23609294
40	0x3e733d36	0.23753819
41	0x3c908466	0.017641257
42	0xbe5e6f1d	-0.21722074
43	0x3e16169f	0.14657067
44	0x3db3e946	0.08784728
45	0xbdb61dde	-0.088924155
46	0x3e691f95	0.22765954
47	0x3e39543e	0.18098542
48	0x3db19268	0.08670503
49	0x3dd92b6e	0.10603987
50	0xbe163282	-0.14667705
51	0xbd9aa3b3	-0.075507544
52	0xbdbcdd46	-0.09221892
53	0x3d9c4f71	0.0763234
54	0xbdd8b9a1	-0.10582281
55	0x3e10ff1e	0.1415982
56	0x3d5ab2ce	0.053393178
57	0xbdac4e92	-0.084134236
58	0xbe7686ef	-0.2407491
59	0x3d834895	0.06410328
60	0x3c763329	0.015026846
61	0x3d7d3926	0.06182208
62	0x3e0b4aac	0.13602704
63	0xbdb7ed56	-0.08980815

norm1.weight f4 [64]
0	0x3f7f9045	0.9982951
1	0x3f803ae5	1.0017973
2	0x3f802ccc	1.0013671
3	0x3f7ff5a9	0.9998422
4	0x3f8045c6	1.0021293
5	0x3f80036e	1.0001047
6	0x3f801eb8	1.0009375
7	0x3f7fff82	0.9999925
8	0x3f7fcd8a	0.99923
9	0x3f80060b	1.0001844
10	0x3f7fc114	0.9990399
11	0x3f80064c	1.0001922
12	0x3f800a69	1.0003177
13	0x3f802631	1.0011655
14	0x3f8022e3	1.0010647
15	0x3f800058	1.0000105
16	0x3f7fbdad	0.998988
17	0x3f7fa8ca	0.99866927
18	0x3f80043f	1.0001296
19	0x3f803ed3	1.0019172
20	0x3f7fe544	0.99959207
21	0x3f7fe159	0.9995323
22	0x3f800756	1.0002239
23	0x3f7f5ed3	0.99754065
24	0x3f7ff9bf	0.9999046
25	0x3f801148	1.0005274
26	0x3f801021	1.0004922
27	0x3f802d71	1.0013868
28	0x3f7ff345	0.99980575
29	0x3f7fd4d1	0.9993411
30	0x3f8016b5	1.000693
31	0x3f7fed21	0.99971205
32	0x3f800358	1.000102
33	0x3f8009e8	1.0003023
34	0x3f8048c1	1.0022203
35	0x3f7fc0ca	0.9990355
36	0x3f804b2f	1.0022944
37	0x3f8015ac	1.0006614
38	0x3f7fed1e	0.9997119
39	0x3f800234	1.0000672
40	0x3f7f9d84	0.99849725
41	0x3f7fbec6	0.9990047
42	0x3f7f7c43	0.99798983
43	0x3f800535	1.0001589
44	0x3f7ff00e	0.9997567
45	0x3f7fec2d	0.9996975
46	0x3f7fe915	0.9996503
47	0x3f800086	1.000016
48	0x3f80168d	1.0006882
49	0x3f801333	1.0005859
50	0x3f804ab7	1.0022801
51	0x3f7f7d92	0.9980098
52	0x3f802f2a	1.0014393
53	0x3f7fd837	0.9993929
54	0x3f800e3a	1.0004342
55	0x3f7f4d35	0.99727184
56	0x3f7feff8	0.9997554
57	0x3f801b0e	1.0008256
58	0x3f800000	1.0
59	0x3f7fc3ff	0.9990844
60	0x3f7f6887	0.9976887
61	0x3f800cce	1.0003908
62	0x3f7f79be	0.9979514
63	0x3f805178	1.0024862

norm1.bias f4 [64]
0	0xbb02df44	-0.0019969502
1	0x3b03bcb4	0.002010149
2	0x3af8a489	0.0018969934
3	0xb8698082	-5.567121e-05
4	0x3afa5f06	0.0019101806
5	0x3a1b20e3	0.0005917681
6	0x3ab2f4c0	0.0013653263
7	0x3a027cbb	0.0004977693
8	0xba83149c	-0.0010000649
9	0xba0ebdb3	-0.00054451375
10	0xba91263c	-0.0011074017
11	0x39b7d4b0	0.00035062945
12	0xb947d2d5	-0.0001905666
13	0x3ac8a70c	0.0015308573
14	0x3af3f49a	0.0018612326
15	0xb8a305a1	-7.773494e-05
16	0xba3554d3	-0.0006917242
17	0xbad90df5	-0.0016559946
18	0x38cb26e8	9.687041e-05
19	0x3b0548e9	0.0020337647
20	0xba4ee438	-0.00078922836
21	0xba9836d2	-0.0011613017
22	0x3990613e	0.0002753827
23	0xbb0f62a9	-0.0021878874
24	0xb8bb34fd	-8.926725e-05
25	0x398e3954	0.00027127063
26	0x3a0b5212	0.00053146586
27	0x3a9d974e	0.0012023242
28	0x388d26a3	6.7306006e-05
29	0xb8e8ceee	-0.00011101166
30	0x3a885b2f	0.0010403151
31	0xba612a7a	-0.00085893983
32	0xba3870b4	-0.0007035837
33	0x3a3ad5a1	0.000712717
34	0x3b1c693d	0.0023866438
35	0xba096456	-0.00052410865
36	0x3b1ee9da	0.0024248273
37	0x3a3c19a7	0.00071754534
38	0xba658402	-0.00087553274
39	0xb80570d8	-3.1814765e-05
40	0xbac0e27d	-0.0014715936
41	0xbac282e4	-0.0014840034
42	0xbaa5ab1c	-0.0012639496
43	0x387ee0c4	6.076765e-05
44	0x39e6c234	0.0004401371
45	0xba6a6cb8	-0.0008942592
46	0xba015a98	-0.0004934459
47	0x3a03028f	0.00049976347
48	0x397ece93	0.00024300283
49	0x3a3ab5d6	0.00071224326
50	0x3b208bcc	0.0024497388
51	0xbb111a35	-0.0022140865
52	0x3ae36204	0.0017347937
53	0x37df2be0	2.6604102e-05
54	0x396568f8	0.00021878246
55	0xbb336ded	-0.0027378753
56	0x399dbc72	0.00030085776
57	0x3a82c866	0.0009977936
58	0x00000000	0.0
59	0xba6df04d	-0.000907664
60	0xbb26a105	-0.0025425565
61	0x3a47c3b9	0.00076204125
62	0xbad41aba	-0.0016182282
63	0x3b2a55ce	0.0025991085

fc2.weight f4 [64, 64]
0	0x3da3bfb3	0.07995548
1	0x3d9e9ba2	0.07744528
2	0xbce73e35	-0.028227905
3	0x3deca79f	0.11555409
4	0x3d0c575b	0.034262996
5	0xbb1eb13f	-0.0024214534
6	0x3d8ed888	0.06974894
7	0xbc81e076	-0.015854102
8	0xbc3a8b20	-0.011385709
9	0x3d96b891	0.07359422
10	0xbdeee9ab	-0.116656624
11	0x3d715710	0.05892092
12	0x3db23ec4	0.08703378
13	0x3ba32ad7	0.004979472
14	0xbdb02166	-0.0860012
15	0xbd459e55	-0.0482467
16	0xbc8e34c0	-0.017359138
17	0x3d933e66	0.07189636
18	0x3b6eb7f9	0.0036425574
19	0xbda37ba0	-0.07982564
20	0xbd22c4dc	-0.03973852
21	0x3dafec65	0.085900106
22	0x3cca9ff6	0.024734478
23	0x3da5278c	0.080641836
24	0x3ca76758	0.02043502
25	0x3cc83716	0.02444033
26	0xbd2f09bd	-0.042733897
27	0xbd105840	-0.03524041
28	0xbd3a2bbb	-0.04545186
29	0x3d3d79dc	0.046258792
30	0xbd8a6bdb	-0.06758853
31	0x3c2fcab2	0.010729479
32	0xbb96c798	-0.00460143
33	0x3cf72d1b	0.030172875
34	0xbc172331	-0.009224699
35	0x3b0940b4	0.0020943107
36	0x3dae3f00	0.0850811
37	0x3c453c5e	0.012038318
38	0xbd3c8da1	-0.046033505
39	0xbdbb9c1d	-0.091606356
40	0x3df95d76	0.121760294
41	0xbd78f32e	-0.06077879
42	0x3ddd87be	0.108169064
43	0xbcfb150e	-0.030649688
44	0xb9e79583	-0.00044171148
45	0xbd89fdf3	-0.0673789
46	0xbc0e3cc3	-0.008681479
47	0x3d331b68	0.04372731
48	0xbdeae6c4	-0.11469796
49	0x3cfd76ae	0.03094038
50	0xbd4eb6c3	-0.050467264
51	0x3cda32f5	0.026635626
52	0xbd896d4c	-0.067103
53	0x3cd15da8	0.025557354
54	0xbc2de24e	-0.010613037
55	0x3d1577b2	0.036491103
56	0x3dafb92e	0.08580242
57	0xbda39983	-0.079882644
58	0x3c2b7350	0.010464504
59	0xbd6ac2d2	-0.0573147
60	0x3d02828b	0.031862777
61	0xbde1a4c5	-0.110177554
62	0xbde70b40	-0.11281443
63	0x3da664e9	0.08124716
64	0xbd97d302	-0.074132934
65	0x3d84f1e9	0.06491453
66	0xbd8c4b2c	-0.068502754
67	0xbdc6ba21	-0.0970347
68	0xbdd02546	-0.10163359
69	0xbd1ec096	-0.038757883
70	0x3dbbd467	0.09171372
71	0x3cb36188	0.021897092
72	0xbd158e20	-0.036512494
73	0xbc691f72	-0.014228689
74	0xbbac9ab0	-0.0052674636
75	0x3da15668	0.07877809
76	0x3c86e9d0	0.016468912
77	0xbd14c894	-0.0363241
78	0xbd99f2a6	-0.07516985
79	0x3d24fc33	0.04027958
80	0x3c32a498	0.0109035
81	0xbdd8e39b	-0.10590287
82	0x3ad357f1	0.0016124231
83	0xbda225b0	-0.079173446
84	0xbd8586fd	-0.065198876
85	0xbdfd80cc	-0.12378082
86	0xbdf0905c	-0.11746284
87	0xbbd5644e	-0.0065122014
88	0xbd96fe24	-0.07372692
89	0x3cb7613e	0.022385236
90	0x3d0777e0	0.033073306
91	0x3db0210d	0.08600054
92	0xbdcb6dd5	-0.09933058
93	0x3d8cf1c5	0.068820514
94	0xbd85d679	-0.06535048
95	0x3c0d47dc	0.00862309
96	0xbcf3b096	-0.029747289
97	0x3d6a7843	0.057243597
98	0xbdefe68d	-0.11713896
99	0xbd8be168	-0.06830102
100	0x3d926a92	0.07149233
101	0xbcfa72d8	-0.03057234
102	0xbd6a03c4	-0.057132497
103	0xbd4a2d4d	-0.04935961
104	0x3db46919	0.08809108
105	0xbd3fd985	-0.046838302
106	0xbdc45f8d	-0.09588537
107	0xbcc53210	-0.024071723
108	0x3d879259	0.066197105
109	0xbdb7d465	-0.08976058
110	0xbdd112ae	-0.10208641
111	0xbd777d34	-0.060422137
112	0x3d0a78c4	0.033806577
113	0xbdbc3083	-0.091889404
114	0x3d3874d6	0.0450333
115	0xbdaf1719	-0.085493274
116	0xbd1dc49a	-0.038517572
117	0x39309f35	0.00016843977
118	0xbdde4468	-0.10852891
119	0x3da4f1f8	0.080539644
120	0x3dae9c53	0.0852591
121	0xbd32e262	-0.043672927
122	0xbdaba4d2	-0.08381046
123	0x3dbb580b	0.09147652
124	0x3dc9cf36	0.098539755
125	0xbccd0fc9	-0.025031941
126	0xbdfa3717	-0.12217539
127	0xbd97f98e	-0.07420646
128	0x3bdf7f77	0.006820615
129	0xbd44c92f	-0.048043426
130	0xbcbfde56	-0.023421448
131	0x3cc86105	0.024460325
132	0xbde57a94	-0.112050205
133	0x3d5e2855	0.054237682
134	0x3ddb1c89	0.10698802
135	0xbdf1051d	-0.117685534
136	0xbd66d264	-0.056352988
137	0xbd91d155	-0.07120005
138	0x3d1fbfde	0.03900134
139	0xbdacf513	-0.08445182
140	0xbc9317e2	-0.017955724
141	0x3de767cf	0.11299097
142	0x3d786251	0.060640637
143	0x3d6ba7e8	0.057533175
144	0x3d704e7a	0.05866859
145	0x3d99d7ba	0.0751185
146	0xbdc9193a	-0.09819265
147	0xbda6bc92	-0.08141436
148	0xbcc61520	-0.024179995
149	0x3da251bb	0.07925745
150	0xbd143206	-0.03618052
151	0x3df1988d	0.11796675
152	0x3c8cdcdb	0.017195156
153	0x3bc76dfd	0.0060861097
154	0x3a6697f3	0.0008796446
155	0x3d0154f2	0.03157515
156	0xbddd2259	-0.10797567
157	0xbde22d8e	-0.11043845
158	0x3d9f36eb	0.07774147
159	0x3c687629	0.014188328
160	0xbd599ff4	-0.05313106
161	0x3cb17c73	0.021665787
162	0x3d7d7b0e	0.061884932
163	0xbd352c26	-0.044231556
164	0x3d03c9a0	0.032174706
165	0x3cd714c1	0.026255013
166	0xbdf6a549	-0.120432444
167	0x3db1bb5b	0.08678313
168	0xbd9a8bc5	-0.0754619
169	0x3cff696d	0.0311782
170	0x3d283b36	0.041072093
171	0x3ce7ba6d	0.028287137
172	0x3dfb08ba	0.12257524
173	0xbd512072	-0.051056333
174	0x3d42b25e	0.047533385
175	0x3cf286f0	0.029605359
176	0xbdeeecc0	-0.1166625
177	0x3d1aec00	0.037822723
178	0x3c3d2ff8	0.011547081
179	0xbb829038	-0.0039844774
180	0xbdab59fb	-0.08366772
181	0xbd5ae045	-0.053436536
182	0xbd2afe79	-0.04174659
183	0xbdd1cd3e	-0.10244225
184	0x3df7b1df	0.12094473
185	0x3dcded8a	0.100550726
186	0xbd27df90	-0.04098469
187	0xbd86820d	-0.06567774
188	0xbda430e5	-0.080171384
189	0x3c1b3ad6	0.009474477
190	0xbdcebe15	-0.10094849
191	0x3c89514a	0.016762394
192	0xbd9674b7	-0.0734648
193	0xbc6683cf	-0.014069512
194	0x3d688174	0.05676408
195	0xbcb81bce	-0.022474196
196	0xbc8cc412	-0.017183337
197	0x3d1ed6e4	0.038779154
198	0xbde9db12	-0.114187375
199	0xbd3f7d93	-0.046750616
200	0xbda70f77	-0.081572466
201	0xbdd4ecb2	-0.103967085
202	0x3d8943b9	0.0670237
203	0xbd820167	-0.06347924
204	0xbda29c73	-0.079399966
205	0x3d99c6ee	0.07508646
206	0xbd8ad9df	-0.06779837
207	0xbd6b3e17	-0.05743226
208	0xbd53958a	-0.051656283
209	0x3da775fa	0.08176799
210	0x3d2f115c	0.042741165
211	0xbdaf6348	-0.08563858
212	0xbde78494	-0.11304584
213	0x3b89f467	0.0042100432
214	0xbd8bfc39	-0.06835217
215	0x3bbd3e41	0.0057752435
216	0xbd2746a1	-0.04083884
217	0x3cde54a2	0.027139965
218	0x3d6c7ed8	0.057738155
219	0x3d21c0e3	0.03949059
220	0xbdd903d6	-0.10596435
221	0x3da566cd	0.08076248
222	0xbd2f2751	-0.042762104
223	0xbcdedf38	-0.027206048
224	0x3d2cf982	0.042230137
225	0xbd7c7213	-0.061632227
226	0x3dbd08c6	0.09230189
227	0xbcd553a4	-0.02604086
228	0x3d935a83	0.07194998
229	0xbda208b0	-0.07911813
230	0xbcbe6754	-0.02324263
231	0x3d94e9a2	0.072711244
232	0x3dafed50	0.08590186
233	0xbdbfa504	-0.09357646
234	0x3d84f562	0.064921156
235	0xbd1d98c3	-0.038475763
236	0xbd3254e4	-0.04353799
237	0xbcc3e810	-0.023914367
238	0xbd9aa1e6	-0.07550411
239	0x3dfdd3c1	0.123939045
240	0xbd911085	-0.07083229
241	0x3db04b2b	0.08608087
242	0xbdd37923	-0.10325839
243	0xbd472b28	-0.04862514
244	0xbda0274f	-0.078199975
245	0xbdced82f	-0.100998275
246	0xbd9136c7	-0.07090526
247	0x3dd95a97	0.10612982
248	0x3dfd2a1c	0.12361547
249	0xbdb07244	-0.086155444
250	0xbcb05288	-0.021523729
251	0x3da75b8b	0.08171757
252	0xbc513928	-0.012769975
253	0x3da20f65	0.079130925
254	0x3dc4aa56	0.096028015
255	0x3de23e74	0.11047068

fc2.bias f4 [64]
0	0xbd43a485	-0.04776432
1	0xba82d830	-0.0009982642
2	0xbcc77355	-0.024346987
3	0x3db3b077	0.087738924
4	0x3bdca05d	0.006732984
5	0xbcc0d3cf	-0.023538498
6	0xbd191690	-0.037375033
7	0x3d4696a9	0.048483524
8	0x3de15e87	0.11004358
9	0x3cdbae6c	0.02681657
10	0x3d9dd8f2	0.07707395
11	0x3cf4a4a1	0.029863657
12	0xbdc530af	-0.09628426
13	0x3d2838ba	0.041069724
14	0x3de0a47a	0.109688714
15	0xbd75f0d7	-0.060044136
16	0x3d6d06b6	0.05786773
17	0x3c14e460	0.009087652
18	0x3d963551	0.07334388
19	0x3cbe3f78	0.023223624
20	0x3c55e754	0.013055641
21	0x3d89ca44	0.06728032
22	0x3db83736	0.08994906
23	0x3ddedc88	0.10881907
24	0x3dc0d716	0.094160244
25	0x3df34296	0.11877935
26	0xbd2d2498	-0.042271227
27	0xbd2ec1d7	-0.04266533
28	0x3d991fef	0.07476794
29	0x3d40fba7	0.047114994
30	0xbd1bf85d	-0.038078655
31	0x3d875c1f	0.066093676
32	0xbd18c8dc	-0.03730093
33	0xbd759029	-0.059951935
34	0xbdbd0b9d	-0.09230731
35	0xbde4fac8	-0.11180645
36	0x3cfebe24	0.031096525
37	0xbb42c77f	-0.002972096
38	0xbde51a77	-0.111866884
39	0x3dc79be3	0.0974653
40	0xbd3fe0ce	-0.04684525
41	0xbd8dc410	-0.069221616
42	0xbdc0cc82	-0.09414007
43	0x3d7d694d	0.061868
44	0xbdd31a25	-0.10307721
45	0xbd0d8de7	-0.034559157
46	0x3cec745a	0.028864074
47	0xbdb7531e	-0.089514
48	0x3c26e197	0.010185621
49	0xbd1b4675	-0.03790899
50	0xbd7c7ba5	-0.061641354
51	0x3dc58b0e	0.09645663
52	0x3dffe64d	0.12495098
53	0x3d2a5609	0.041585956
54	0x3df2ff11	0.11865056
55	0xbdb86ed3	-0.09005513
56	0xbce04737	-0.027377708
57	0x3c4d036d	0.012513024
58	0x3d8d6732	0.069044486
59	0x3cca579d	0.02469998
60	0xbba66fee	-0.005079261
61	0xbdd7019c	-0.10498354
62	0xbdab0ad9	-0.083516784
63	0x3d51004d	0.051025677

norm2.weight f4 [64]
0	0x3f7f63e8	0.9976182
1	0x3f800000	1.0
2	0x3f800c22	1.0003703
3	0x3f7fdb8f	0.99944395
4	0x3f7f8d08	0.9982457
5	0x3f8017c1	1.0007249
6	0x3f8034a6	1.0016067
7	0x3f7f8568	0.99812937
8	0x3f8050fe	1.0024717
9	0x3f80102a	1.0004933
10	0x3f7ff794	0.9998715
11	0x3f7faef4	0.9987633
12	0x3f803acb	1.0017942
13	0x3f8009f0	1.0003033
14	0x3f7fa380	0.99858856
15	0x3f7fed8c	0.9997184
16	0x3f7f4f56	0.9973043
17	0x3f7f74d8	0.99787664
18	0x3f8020f7	1.001006
19	0x3f7fec5c	0.9997003
20	0x3f8037f6	1.0017078
21	0x3f800ed7	1.0004529
22	0x3f7f7c0a	0.99798644
23	0x3f7ffc4d	0.99994355
24	0x3f7ff012	0.99975693
25	0x3f80149a	1.0006287
26	0x3f804e9e	1.0023992
27	0x3f7f8254	0.9980824
28	0x3f801848	1.000741
29	0x3f802d18	1.0013762
30	0x3f7fa26d	0.9985722
31	0x3f8031cf	1.00152
32	0x3f7f863d	0.99814206
33	0x3f7f7e48	0.99802065
34	0x3f80250a	1.0011303
35	0x3f8034e9	1.0016147
36	0x3f7feda3	0.9997198
37	0x3f8005a8	1.0001726
38	0x3f8001b1	1.0000516
39	0x3f7fadba	0.9987446
40	0x3f7fee8a	0.99973357
41	0x3f7f6033	0.99756163
42	0x3f800414	1.0001245
43	0x3f7fcaff	0.9991912
44	0x3f7fed7d	0.99971753
45	0x3f7fddea	0.9994799
46	0x3f803d46	1.0018699
47	0x3f7fe8d3	0.99964637
48	0x3f802a54	1.0012918
49	0x3f7fbaae	0.99894226
50	0x3f800b69	1.0003482
51	0x3f801fd0	1.0009708
52	0x3f801dca	1.0009091
53	0x3f800657	1.0001935
54	0x3f8021dc	1.0010333
55	0x3f800df8	1.0004263
56	0x3f80065d	1.0001942
57	0x3f7faf36	0.99876726
58	0x3f7ff5d3	0.99984473
59	0x3f803cfb	1.001861
60	0x3f800bbb	1.000358
61	0x3f8047a7	1.0021867
62	0x3f7f6f5d	0.997793
63	0x3f7ff42d	0.9998196

norm2.bias f4 [64]
0	0xbb1c2a38	-0.0023828875
1	0x00000000	0.0
2	0x3a4113dc	0.0007365325
3	0xba023df5	-0.0004968339
4	0xbacd4b97	-0.0015662786
5	0x3971cd7e	0.00023060103
6	0x3b0c42a0	0.0021402016
7	0xbae2adbc	-0.0017294209
8	0x3b245bc2	0.0025079106
9	0x39fb73c3	0.000479607
10	0xb93e1f5f	-0.00018131499
11	0xbacdab26	-0.0015691265
12	0x3ad51e28	0.0016259598
13	0x3a3cfeb8	0.0007209587
14	0xbacacdf4	-0.0015472756
15	0xba8793d0	-0.0010343734
16	0xbb313c09	-0.002704384
17	0xbb0c685e	-0.0021424512
18	0x3a3fd01c	0.00073170825
19	0xba452fbd	-0.0007522067
20	0x3aeff461	0.0018307084
21	0xb8cbc8ef	-9.717221e-05
22	0xbb0e48ea	-0.002171094
23	0xb713d056	-8.81039e-06
24	0x38dffc3d	0.00010680452
25	0x39cf3708	0.00039523118
26	0x3b16a97d	0.0022989206
27	0xbb0ac64c	-0.0021175323
28	0x3a22a455	0.0006204297
29	0x3abb9a02	0.0014312866
30	0xba83e288	-0.0010062018
31	0x3ae789d2	0.0017664975
32	0xbb135b01	-0.0022484662
33	0xbaec1f0c	-0.0018014624
34	0x3ac355e0	0.0014902912
35	0x3b0e77dc	0.0021738922
36	0xba0d3fa3	-0.0005388206
37	0x3953251c	0.00020136352
38	0xb91e6bb6	-0.0001510818
39	0xba95ffd1	-0.0011444037
40	0x3990be6f	0.00027607704
41	0xbb0c8ec4	-0.00214474
42	0xba0d77dc	-0.00053965836
43	0xba173483	-0.0005768018
44	0xb94b3eda	-0.00019383003
45	0xba01a708	-0.0004945849
46	0x3b0dfd2d	0.0021665797
47	0xbaa94868	-0.0012915256
48	0x3a9b10ce	0.001183057
49	0xbaed80a2	-0.0018120001
50	0x3a244c63	0.0006267486
51	0x3aca4bb2	0.0015433936
52	0x3a875203	0.0010324124
53	0x392114ec	0.0001536195
54	0x3a863f96	0.0010242339
55	0x3a5975d2	0.00082954497
56	0x3a201561	0.00061067013
57	0xbad978b1	-0.0016591755
58	0x38570fb9	5.1274637e-05
59	0x3b155686	0.0022787168
60	0x3960f62d	0.00021454012
61	0x3b1788ef	0.002312239
62	0xbb2688aa	-0.0025411048
63	0xba23f1cc	-0.0006253987

vf.weight f4 [1, 64]
0	0x3dd24d68	0.1026867
1	0x3dd384e4	0.10328081
2	0xbd31bc4a	-0.043392457
3	0x3cdf7d8f	0.02728155
4	0x3cae9587	0.021311535
5	0xbc973cd3	-0.01846162
6	0xbd890803	-0.06690981
7	0x3dca42ef	0.09876048
8	0xbdf665e9	-0.120311566
9	0xbd5b561c	-0.053548917
10	0x3bb06781	0.0053834324
11	0x3d271911	0.04079539
12	0xbbae01fa	-0.005310294
13	0xbd0add07	-0.033902194
14	0x3d55a179	0.052155945
15	0x3d1a7850	0.037712395
16	0x3ddd4dff	0.10805892
17	0x3dc107db	0.094253264
18	0x3bdb669a	0.0066955807
19	0x3d8f5a32	0.06999625
20	0xbde438b2	-0.11143626
21	0xbbf8fd40	-0.007598549
22	0x3dfa57d2	0.12223782
23	0x3ccc9cc4	0.024977095
24	0x3c48016f	0.012207373
25	0xbc15a858	-0.009134375
26	0xbdecdf30	-0.11566007
27	0x3d5d80a7	0.05407777
28	0xbd0a2fd5	-0.033737022
29	0xbd240202	-0.040040977
30	0x3c9c936e	0.019113269
31	0xbd884c39	-0.06655163
32	0x3d970a75	0.073750414
33	0x3d7ab7b7	0.06121036
34	0xbcc26b36	-0.023732763
35	0xbd91584d	-0.0709692
36	0x3d5a8c33	0.05335636
37	0xbce7bd8e	-0.028288629
38	0x3c0c95a3	0.008580598
39	0x3ba3749b	0.0049882657
40	0x3c569576	0.013097158
41	0x3da955a5	0.082682885
42	0xbbf2d195	-0.007410238
43	0x3d095033	0.03352375
44	0xba6ce918	-0.0009037419
45	0xbd0e9e9c	-0.03481923
46	0xbd8b321a	-0.067966655
47	0x3d3c09f2	0.045907922
48	0xbc992f70	-0.018699378
49	0x3df8ed43	0.12154629
50	0xbcf1810f	-0.029480485
51	0xbc69b283	-0.014263752
52	0xbdbe5692	-0.09293856
53	0xbdf5331d	-0.1197264
54	0xbbb9ffbc	-0.005676238
55	0xbbcafb64	-0.006194519
56	0xbdd908cf	-0.10597383
57	0x3d752950	0.05985385
58	0x3c8e96f3	0.017405963
59	0xbdeaed30	-0.11471021
60	0x3ddc955c	0.107706755
61	0xbde40494	-0.11133686
62	0x3dd6b4b4	0.10483685
63	0x3c5a9d18	0.013343118

economy_head.weight f4 [12, 64]
0	0xbdae9776	-0.08524983
1	0x3dc728ca	0.09724577
2	0xbdb4cc6b	-0.08828052
3	0xbda9c018	-0.08288592
4	0xbd1c2009	-0.03811649
5	0x3ca76da4	0.020438023
6	0x3dcb8253	0.09936967
7	0xbb42fa3f	-0.002975121
8	0xbdd820b4	-0.105531126
9	0xbdfad04f	-0.12246763
10	0xbdab5989	-0.08366687
11	0x3d9e376f	0.07725417
12	0xbc572d4f	-0.013133361
13	0xbd8533eb	-0.06504043
14	0x3de53763	0.11192205
15	0xbdd49b1f	-0.103811495
16	0x3d04d68b	0.032431167
17	0xbc5ae11b	-0.013359333
18	0xbd9e78f1	-0.077379115
19	0x3cdf0f1d	0.027228886
20	0x3d93284b	0.0718542
21	0xbbc1f5ae	-0.00591918
22	0xbdf7cf14	-0.12100044
23	0xbd220ec8	-0.039564878
24	0x3c4d7d65	0.012542103
25	0x3cae2af5	0.021260718
26	0xba5dc015	-0.00084591034
27	0x3d9400ef	0.072267406
28	0xbd32730e	-0.043566756
29	0x3aeb1e46	0.0017938099
30	0xbdcdebf8	-0.10054773
31	0x3dfc4e67	0.123196416
32	0x3d13de57	0.03610071
33	0xbd2017f7	-0.039085355
34	0x3d680990	0.056649745
35	0xbd3120df	-0.04324424
36	0x3d0d898e	0.03455501
37	0xbdc93213	-0.09824004
38	0x3dbcdef2	0.09222211
39	0x3d65507d	0.055984963
40	0xbdd6a46a	-0.10480578
41	0x3dcecb18	0.10097331
42	0x3d21ef9e	0.039535157
43	0x3dc26968	0.09492761
44	0xbce4a343	-0.02790988
45	0xbd008ff1	-0.031387273
46	0x3dcc8897	0.0998699
47	0xbd3d6b82	-0.046245106
48	0xbde460b0	-0.11151254
49	0xbc223a2a	-0.009901563
50	0x3df75b02	0.12077905
51	0x3d7c4311	0.061587397
52	0x3d07af04	0.033125892
53	0xbdf5f8d2	-0.12010349
54	0xbdb1b2d8	-0.0867669
55	0xbde012d8	-0.10941094
56	0x3d8cda1b	0.06877538
57	0x3d2c8d6e	0.042127065
58	0x3d63c705	0.05560972
59	0x3d8fc6fa	0.07020374
60	0x3d3ee238	0.046602458
61	0x3bd49570	0.006487541
62	0xbd894ad0	-0.067037225
63	0xbdb5147a	-0.08841796
64	0xbddf9ca1	-0.109185465
65	0xbd0f1f5c	-0.034942016
66	0x3bd71309	0.0065635485
67	0x3dc475ea	0.09592803
68	0x3d8164a2	0.06318022
69	0xbc678a87	-0.014132149
70	0x3c843e24	0.016142912
71	0x3be080cf	0.0068512927
72	0xbcf193ef	-0.029489486
73	0x3db037dd	0.08604405
74	0x3d1b6d07	0.037945773
75	0xbd950446	-0.07276206
76	0x3d23d04e	0.039993577
77	0x3c0e0f81	0.008670689
78	0xbd6d3d85	-0.057919998
79	0x3cb1cc4a	0.021703858
80	0xbdd16283	-0.10223868
81	0x3d9d7b38	0.07689518
82	0xbdc1ebda	-0.09468813
83	0xbd28a25d	-0.041170467
84	0xbd1979c3	-0.037469637
85	0xbddebe41	-0.10876132
86	0xbd1886ad	-0.03723781
87	0x3c2e8eb4	0.01065414
88	0xbd54e816	-0.051979147
89	0x3d8a15d4	0.06742445
90	0x3df52cfc	0.11971471
91	0xbcbad731	-0.02280769
92	0xbbc481c4	-0.0059969146
93	0xbd277827	-0.04088607
94	0x3c8ddf01	0.01731825
95	0xbdcab480	-0.09897709
96	0xbde65dac	-0.11248335
97	0x3d40492a	0.046944775
98	0xbcb76f16	-0.022391837
99	0xbda3ee86	-0.08004479
100	0xbcbf1073	-0.023323273
101	0x3de8225a	0.11334677
102	0xbdc7e3f7	-0.09760278
103	0x3d8c0062	0.068360105
104	0x3d86c7ff	0.06581115
105	0xbc8a9441	-0.016916396
106	0x3d925f8d	0.07147131
107	0xbcd7746d	-0.026300633
108	0x3d9ca322	0.076483026
109	0x3d0e6616	0.034765325
110	0x3d133571	0.035939638
111	0x3c59690b	0.013269673
112	0xbdf5a30a	-0.11993988
113	0xbdec5ae7	-0.11540776
114	0x3c6926c5	0.014230435
115	0x3c8cd209	0.017189996
116	0xbd8e40c6	-0.06945948
117	0x3cc80d78	0.024420485
118	0x3c386da3	0.011256608
119	0xbdfea6bf	-0.12434148
120	0xbcd0ceca	-0.02548923
121	0xbbf001b7	-0.007324423
122	0x3dd597a9	0.104293175
123	0x3db7e2e3	0.08978822
124	0xbda9f6aa	-0.082990006
125	0x3b1bd1ca	0.0023776167
126	0x3d4d4a90	0.050119936
127	0x3d7e0a51	0.062021557
128	0xbdcfe470	-0.10150993
129	0x3d840028	0.06445342
130	0x3ac5bc24	0.0015085978
131	0xbcdbcecf	-0.026832012
132	0xbde44014	-0.111450344
133	0x3bb95b1e	0.005656614
134	0xbd90b149	-0.070650645
135	0x3d99f12c	0.07516703
136	0xbd28d8dc	-0.04122244
137	0x3df71aab	0.120656334
138	0x3d1849ec	0.037179872
139	0x3dc725eb	0.09724029
140	0xbcfba05d	-0.030716116
141	0x3dc85375	0.09781543
142	0x3d126904	0.035744682
143	0x3da80a7a	0.08205123
144	0xbde2048a	-0.11036022
145	0x3d9d0b9c	0.0766823
146	0x38824e03	6.213414e-05
147	0x3dd6abf0	0.10482013
148	0xbd691e18	-0.056913465
149	0x3db02cd5	0.08602301
150	0xb9b09cf2	-0.0003368627
151	0x3d10e545	0.0353749
152	0x3d970a6b	0.07375034
153	0xbc174445	-0.009232585
154	0x3dfb1847	0.1226049
155	0xbd80e7e7	-0.06294232
156	0xbd1004db	-0.03516088
157	0xbda639f1	-0.0811652
158	0x3debe163	0.115175985
159	0xbdbb007c	-0.09130952
160	0xbd6d98b6	-0.058006965
161	0xbcc5c8e7	-0.02414365
162	0x3db17eca	0.08666761
163	0x3d7cdd84	0.06173469
164	0xbd00fc64	-0.0314907
165	0xbd8a44cc	-0.06751403
166	0x3d348003	0.044067394
167	0x3d9d4b9e	0.076804385
168	0x3cd70b8d	0.026250625
169	0xbd0eb97b	-0.034844857
170	0x3df04585	0.1173201
171	0xbcea3129	-0.028587895
172	0x3d98c395	0.07459179
173	0xbde01283	-0.10941031
174	0x3c8de58b	0.017321369
175	0xbd9e886f	-0.077408664
176	0xbcb511cd	-0.022103215
177	0xbdbaf378	-0.09128469
178	0x3d8d0a5a	0.0688674
179	0xbdc2a232	-0.095035926
180	0x3d9da9da	0.07698412
181	0xbd12e027	-0.0358583
182	0x3d57b790	0.052665293
183	0x3c496f23	0.012294563
184	0xbdcd683b	-0.10029646
185	0xbdc368d2	-0.09541477
186	0xbd758055	-0.05993684
187	0x3b4543f7	0.0030100325
188	0x3d0f335a	0.034961082
189	0x3b997fc1	0.004684419
190	0xbcbfd469	-0.023416715
191	0x3bdf66cf	0.0068176757
192	0x3db0d612	0.08634581
193	0xbd9f1154	-0.07766977
194	0x3d2685ef	0.040655073
195	0xbd9a2270	-0.075261
196	0xbd55437f	-0.052066322
197	0x3bd9b7a8	0.006644208
198	0xbddbc450	-0.10730803
199	0xbda8e35a	-0.08246489
200	0x3d20b884	0.039238468
201	0x3d9f962a	0.077923134
202	0xbcc6f4ab	-0.024286589
203	0x3d50b423	0.05095304
204	0xbd6f3848	-0.058403283
205	0xbd3fddb4	-0.046842292
206	0xbdbe9677	-0.09306043
207	0x3ca71a43	0.020398265
208	0xbc971e08	-0.018446937
209	0x3de2f511	0.11081899
210	0x3d377697	0.04479083
211	0x3d573d1b	0.05254851
212	0xbcff7a10	-0.031186134
213	0x3ccdaf03	0.025107866
214	0x3d42045e	0.047367446
215	0x3cc0d9cd	0.023541356
216	0x3d1c4f2c	0.03816144
217	0x3c74d897	0.014944217
218	0xbc39ce08	-0.011340626
219	0x3de640f9	0.11242861
220	0xbd3df279	-0.046373818
221	0xbd27c42b	-0.040958565
222	0xbcc9133d	-0.024545306
223	0xbdacec2d	-0.084434845
224	0x3dae739b	0.08518144
225	0xbdd03b5e	-0.101675734
226	0x3dcdc5ec	0.10047516
227	0xbcb88e2f	-0.022528736
228	0xbc9fd7c0	-0.019512057
229	0x3d2c0e55	0.042005856
230	0xbceb8155	-0.028748194
231	0xbcac7605	-0.02105237
232	0x3c96d9e4	0.018414445
233	0x3def61b0	0.11688554
234	0xbcee1c33	-0.02906618
235	0xbc758628	-0.014985599
236	0xbd71742f	-0.058948692
237	0x3c8e74f2	0.017389748
238	0x3d956e2c	0.07296404
239	0xbda73df9	-0.08166117
240	0xbdbf9d2a	-0.093561485
241	0xbdd00b4b	-0.10158404
242	0x3bf8d11a	0.007593286
243	0x3c122992	0.008921044
244	0x3ce4c015	0.027923623
245	0x3d8a2154	0.06744638
246	0x3d7cf942	0.06176115
247	0x3dc41c03	0.09575655
248	0x3dc246c9	0.094861574
249	0x3dad695a	0.0846736
250	0xbbf777d3	-0.007552126
251	0x3d1b5f49	0.037932668
252	0xbd1da1d3	-0.038484406
253	0xbde796c2	-0.11308052
254	0x38bfac87	9.1397254e-05
255	0x3db31c50	0.087456346

economy_head.bias f4 [12]
0	0x3c84da6e	0.016217437
1	0xbc4bccf1	-0.012438999
2	0x3cdbe4ca	0.026842494
3	0xbd58c359	-0.052920673
4	0x3a98eaf9	0.0011666707
5	0xbddfb500	-0.10923195
6	0xbdd85a19	-0.1056406
7	0xbde97474	-0.11399165
8	0xbccac86a	-0.024753768
9	0xbc4799d7	-0.012182674
10	0x3dec7973	0.11546602
11	0xbd6bb3fa	-0.057544686

army_head.weight f4 [2, 64]
0	0xbdb8a803	-0.09016421
1	0xbc766380	-0.015038371
2	0xbd3bd522	-0.045857556
3	0x3dcc6d9a	0.09981842
4	0x3d064878	0.032783955
5	0x3d0e1812	0.034690924
6	0x3d9f939b	0.077918254
7	0xbca75cfa	-0.020430077
8	0xbda09a42	-0.07841922
9	0x3d9f51a8	0.077792466
10	0xbdd00f78	-0.101592004
11	0x3d82a1e4	0.063785344
12	0xbcf1a5fe	-0.029498097
13	0x3d4d043c	0.050052866
14	0x3c692cca	0.01423187
15	0x3dd868bc	0.105668515
16	0xbd7cb0ed	-0.061692167
17	0x3d441577	0.047872033
18	0x3d3ded9f	0.04636919
19	0x3dbfb20c	0.093601316
20	0xbdcf9565	-0.101359166
21	0xbd42a364	-0.047519103
22	0x3de25058	0.110504806
23	0x3d7ab3f5	0.061206777
24	0x3d2bb291	0.04191834
25	0x3daf30a7	0.085542016
26	0xbd7ffc07	-0.06249621
27	0x3d420301	0.047366146
28	0xbd4d9a85	-0.05019619
29	0xbdb994be	-0.090615734
30	0xbcb7f964	-0.022457786
31	0xbd1e6791	-0.038672987
32	0x3c2bee31	0.010493801
33	0x3c9445dc	0.018099718
34	0x3d202f5c	0.039107665
35	0xbda56d74	-0.08077517
36	0xbd992d7a	-0.07479377
37	0x3dd70b72	0.1050023
38	0xbce4ba39	-0.02792083
39	0xbd656850	-0.056007683
40	0x3d9af3f2	0.0756606
41	0x3c77e8dc	0.015131202
42	0x3df0fa2d	0.11766467
43	0x3cb15488	0.021646753
44	0x3d97e8c7	0.07417446
45	0x3db68fc6	0.08914141
46	0xbd8ba199	-0.06817932
47	0xbbc5ff32	-0.0060423845
48	0xbd353893	-0.044243407
49	0x3deb076b	0.11476024
50	0xbd34ddbf	-0.044156786
51	0xba3b14cd	-0.00071365834
52	0x3c061568	0.008183815
53	0x3d5c3dd4	0.0537699
54	0x3dae75e2	0.08518578
55	0x3df15855	0.11784426
56	0x3d943c40	0.07238054
57	0xbc9f5bf9	-0.019453036
58	0x3dcde049	0.100525446
59	0xbc7519f5	-0.014959802
60	0xbdf4fbda	-0.119620994
61	0xbdabd70f	-0.083906285
62	0xbde636f8	-0.11240953
63	0xbdf2892a	-0.11842568
64	0xbc99cce2	-0.018774454
65	0xbd9aad9a	-0.07552643
66	0x3d76be8e	0.06024032
67	0xbcc1ea3b	-0.02367126
68	0xbd487773	-0.04894204
69	0x3d538eea	0.051649965
70	0xbdea0699	-0.1142704
71	0xbdc8eae6	-0.09810428
72	0xbd476947	-0.048684385
73	0x3dce8146	0.10083251
74	0xbd4c9fb4	-0.049956992
75	0x3dfdbe7a	0.12389846
76	0xbdd1289f	-0.10212826
77	0x3ddc239d	0.1074898
78	0x3cdfe2cb	0.027329823
79	0x3db1b11a	0.086763576
80	0xbd365eec	-0.04452412
81	0xbdc48128	-0.09594947
82	0x3db2ec9f	0.08736538
83	0x3d76095d	0.060067523
84	0x3de20cdd	0.1103761
85	0x3b8ee302	0.0043605575
86	0x3df32a94	0.118733555
87	0xbdfad4a8	-0.12247592
88	0xbdd3830e	-0.10327731
89	0xbd7d6a3f	-0.061868902
90	0xbd3c9e07	-0.046049144
91	0x3c5c2daa	0.013438622
92	0xbdd0801c	-0.10180685
93	0xbd6720e2	-0.056427844
94	0x3dd0a95f	0.10188555
95	0x3d9f2f53	0.07772698
96	0x3d9d1d8b	0.076716505
97	0xbd1388d5	-0.036019165
98	0xbd994668	-0.07484132
99	0xbc2cc9e2	-0.0105461795
100	0x3d08c1f0	0.03338808
101	0x3d3944d3	0.04523165
102	0x3ddcaa70	0.10774696
103	0xbd37ec80	-0.04490328
104	0xbdd5e2e2	-0.10443665
105	0xbccc9846	-0.024974953
106	0x3d03c282	0.03216792
107	0x3d9c3d25	0.0762885
108	0xbdb4c39b	-0.08826371
109	0xbddce796	-0.10786359
110	0x3d1a674c	0.037696168
111	0xbd81ad2a	-0.063318565
112	0xbdd78e3d	-0.10525177
113	0x3d44950b	0.0479937
114	0xbcc20006	-0.023681652
115	0x3d68cd66	0.05683651
116	0x3d068243	0.03283907
117	0xbdbd335b	-0.09238311
118	0xbdf16680	-0.117871284
119	0xbd96c47b	-0.073616944
120	0xbb1853c3	-0.0023243285
121	0xbd227677	-0.039663758
122	0x3d2e7b05	0.04259779
123	0xbdc349e0	-0.09535575
124	0x3d9cc1f2	0.0765418
125	0xbdb7e1a7	-0.08978587
126	0xb949d4f1	-0.0001924818
127	0x3d70136c	0.058612272

army_head.bias f4 [2]
0	0x3de9e0f6	0.11419861
1	0x3dcd5b4e	0.100271806
