bots/HD_PPO/model.pt (torch, 24615 bytes, 11 tensors)

fc1.weight f4 [64, 5]
-0.27993688 0.102914326 -0.29928 -0.15832923 0.31036544 0.24364465 0.00053650985 -0.07409784
0.3758077 -0.42280528 -0.105667315 0.031584017 0.10909396 0.12887101 0.13698974 -0.34520835
-0.099894926 -0.46570697 -0.21560234 0.28390592 0.037072014 -0.30254373 0.23746155 0.458869
0.31209624 0.26099068 0.2991349 -0.38209617 0.099501416 0.13737401 -0.47356892 0.08269735
-0.19994318 0.12095739 -0.07555496 0.09957362 -0.34387526 0.006479166 0.22398846 0.21137418
0.30126077 -0.11982435 0.29597977 -0.17326856 0.15655531 0.3604867 0.33615035 0.18188122
0.046423946 0.4029711 0.045541734 -0.25732145 -0.21088469 0.34917668 -0.113283806 -0.39722502
0.33712247 -0.24128805 -0.29648414 -0.3038195 0.30648133 0.26013598 -0.14362974 0.29317746
0.41454786 0.14407668 -0.35890678 0.35529333 0.21315533 0.22027174 0.1146473 0.12704137
-0.098161176 -0.048043292 -0.04488165 0.23914412 0.2708298 0.19326092 -0.30409783 0.09744862
-0.42551064 -0.4545034 0.14330384 -0.17301415 0.38181266 0.26048306 0.36079583 0.37158164
-0.1868353 0.04065155 0.09063687 -0.14504103 -0.3546574 0.36231783 0.15368962 0.0975321
-0.4312089 0.14220129 -0.39913324 0.41966364 0.13211875 -0.34982762 -0.14035048 0.19966736
0.37649715 -0.07637418 -0.14935102 0.110297635 0.040389825 0.054536782 -0.14145893 0.35207546
0.0066383663 0.07329946 -0.11730739 -0.3981894 -0.41161987 -0.3390399 -0.02001984 0.11239583
0.12236807 0.087641425 -0.33369753 -0.34572867 0.2873958 -0.11225189 -0.36045972 0.2737969
-0.22560425 0.18509834 -0.052220102 0.17288367 -0.12812074 -0.037136864 0.009305632 0.008811477
-0.09784243 -0.2087183 0.07748144 0.4082727 -0.23240697 -0.39667177 -0.00017991557 0.11388486
-0.18627387 -0.3454698 0.3455274 0.24042186 0.021793228 0.04361878 0.016684314 0.046180584
0.13523613 0.17767352 -0.37438616 -0.14587629 0.4132049 -0.3217955 0.17905392 0.1956387
-0.08570489 -0.22439002 -0.12718636 -0.056260485 -0.27466354 0.082196996 -0.34014428 -0.41118696
0.31780732 -0.41856313 -0.20168379 -0.4638465 -0.24809335 0.065316305 -0.0053851767 -0.13890916
0.23337837 -0.1794049 0.08112082 0.1526582 -0.4430827 0.19460526 -0.00042387334 0.06639511
-0.38084158 -0.049755964 0.004319804 -0.38764176 -0.45881337 -0.44123742 -0.4745978 0.18142276
0.08567041 0.41359395 -0.39215755 -0.10447241 0.27099973 -0.13380717 -0.0995028 0.20994423
-0.46363077 0.23901212 0.1124098 -0.11561082 -0.02666964 0.45945612 0.16252172 -0.30238378
0.38853 -0.07102904 0.31083676 -0.19835496 -0.1990378 -0.016008763 -0.15581448 0.2508047
-0.2922925 0.2816481 0.09682076 0.30463433 0.114850365 -0.25383824 0.0024534499 -0.07816735
-0.18518998 -0.013459192 0.22539245 0.19801934 -0.32894376 -0.39325163 -0.30233955 -0.0043391483
0.06762522 -0.14557827 -0.14048238 0.03791818 -0.019196922 -0.12376373 -0.34551224 -0.36366284
-0.15479162 0.10272463 -0.1591904 0.2701465 0.37174094 0.28039542 0.16369116 -0.23987496
-0.18858205 -0.2563579 0.08845805 0.07628487 -0.39915702 0.15861844 0.42121455 0.1502759
00000000: e353 8fbe bfc4 d23d 3a3b 99be 0f21 22be
00000010: 38e8 9e3e fc7d 793e 91a4 0c3a 9cc0 97bd
00000020: de69 c03e ef79 d8be 1b68 d8bd 3e5e 013d
00000030: a76c df3d c3f6 033e 0a47 0c3e 26bf b0be
00000040: b695 ccbd 2571 eebe dcc6 5cbe 1e5c 913e
00000050: d3d8 173d 03e7 9abe 1f29 733e e1f0 ea3e
00000060: 14cb 9f3e 92a0 853e 3628 993e 1ca2 c3be
00000070: 66c7 cb3d c6ab 0c3e a077 f2be 3a5d a93d
00000080: e8bd 4cbe 82b8 f73d 8fbc 9abd 41ed cb3d
00000090: 6b10 b0be 2f4f d43b 3b5d 653e 7972 583e
000000a0: da3e 9a3e 7866 f5bd a98a 973e 506d 31be
000000b0: 0950 203e b691 b83e e61b ac3e 123f 3a3e
000000c0: 0927 3e3d 3a52 ce3e f889 3a3d a3bf 83be
000000d0: 28f2 57be 49c7 b23e 5701 e8bd 1461 cbbe
000000e0: 519b ac3e 3714 77be c5cc 97be 3b8e 9bbe
000000f0: 1feb 9c3e 8b30 853e ad13 13be 5b1b 963e
00000100: 9e3f d43e d688 133e a1c2 b7be 02e9 b53e
00000110: 6445 5a3e ea8e 613e 34cc ea3d 2217 023e
00000120: ba08 c9bd 0bc9 44bd d2d5 37bd 32e2 743e
00000130: 34aa 8a3e 31e6 453e b6b2 9bbe 2493 c73d
00000140: 88dc d9be abb4 e8be 3ebe 123e 9f2a 31be
00000150: f37c c33e 095e 853e 3bba b83e f33f be3e
00000160: c151 3fbe 3d82 263d d39f b93d a385 14be
00000170: a895 b5be b981 b93e d060 1d3e e9be c73d
00000180: 6ac7 dcbe 379d 113e 315b ccbe 27de d63e
00000190: 234a 073e 9b1c b3be 09b8 0fbe 9a75 4c3e
000001a0: 3cc4 c03e 116a 9cbd 79ef 18be bae3 e13d
000001b0: cd6f 253d f661 5f3d 9cda 10be 3c43 b43e
000001c0: a786 d93b 071e 963d db3e f0bd 7bdf cbbe
000001d0: d7bf d2be a396 adbe a600 a4bc c92f e63d
000001e0: 1c9c fa3d 597d b33d 67da aabe 5903 b1be
000001f0: 8b25 933e 52e4 e5bd 2d8e b8be 1b2f 8c3e
00000200: cd04 67be 6b8a 3d3e bfe4 55bd 6b08 313e
00000210: 1532 03be d31c 18bd a676 183c 035e 103c
00000220: 9d61 c8bd 40ba 55be 97ae 9e3d 1f09 d13e
00000230: 18fc 6dbe 9018 cbbe b8a7 3cb9 773c e93d
00000240: 94be 3ebe 6be1 b0be f8e8 b03e 2631 763e
00000250: b687 b23c 9ba9 323d 8bad 883c da27 3d3d
00000260: 577b 0a3e 0cf0 353e 8baf bfbe 9860 15be
00000270: 988f d33e 61c2 a4be e959 373e 8355 483e
00000280: 0c86 afbd 7fc6 65be 243d 02be 6571 66bd
00000290: b3a0 8cbe e656 a83d 6427 aebe 1987 d2be
000002a0: a4b7 a23e e84d d6be 3286 4ebe 4a7d edbe
000002b0: 2f0c 7ebe 8ec4 853d 2376 b0bb 343e 0ebe
000002c0: bdfa 6e3e ebb5 37be ac22 a63d 6e52 1c3e
000002d0: bcdb e2be 9a46 473e 513b deb9 29fa 873d
000002e0: abfd c2be e9cc 4bbd 248d 8d3b fb78 c6be
000002f0: 96e9 eabe dfe9 e1be 7cfe f2be e3c6 393e
00000300: f873 af3d 96c2 d33e e0c8 c8be a2f5 d5bd
00000310: 7ac0 8a3e bf04 09be 20c8 cbbd 9ffb 563e
00000320: 0361 edbe 98bf 743e 1c37 e63d 5ec5 ecbd
00000330: 4a7a dabc d53d eb3e 186c 263e 0cd2 9abe
00000340: 67ed c63e ac77 91bd ff25 9f3e 901d 4bbe
00000350: 91d0 4bbe cf24 83bc d58d 1fbe 7969 803e
00000360: 5da7 95be 2e34 903e f649 c63d 08f9 9b3e
00000370: ab36 eb3d 16f7 81be 0fca 203b 3416 a0bd
00000380: 71a2 3dbe f183 5cbc 47cd 663e 95c5 4a3e
00000390: 516b a8be 4758 c9be 40cc 9abe 6a2f 8ebb
000003a0: 177f 8a3d 7812 15be 9dda 0fbe 1850 1b3d
000003b0: dd42 9dbc d777 fdbd fbe6 b0be 0432 babe
000003c0: b281 1ebe 4a61 d23d cf02 23be a450 8a3e
000003d0: d454 be3e fd8f 8f3e a89e 273e c8a1 75be
000003e0: a71b 41be 5841 83be 7e29 b53d 3e3b 9c3d
000003f0: 4f5e ccbe df6c 223e 6fa9 d73e ede1 193e

fc1.bias f4 [64]
0.44233936 0.23132281 -0.12112299 -0.18597454 0.057124652 -0.045308594 -0.45435593 0.3609413
-0.22280532 -0.08109426 -0.43125695 -0.02407524 0.0799401 -0.26109833 0.13484395 -0.076452374
-0.4301049 -0.2605331 0.281188 -0.27051532 -0.12523857 -0.4558462 0.42523322 0.07446423
0.3011629 0.078613386 -0.2977302 -0.20457923 -0.07228704 -0.41587704 0.3799904 -0.06998747
0.30767536 -0.2656814 -0.17967835 0.064340495 0.37635908 -0.4868885 0.169006 -0.19012736
0.088266835 0.38101232 -0.1594985 0.22895376 -0.23873466 -0.33583856 -0.2890241 -0.21668787
0.17515063 0.14913505 0.052014608 -0.32428694 0.41265944 -0.4722474 0.38105687 -0.09341459
0.3246515 0.25593373 0.29270315 0.3766824 0.28681862 0.051214285 0.036549307 0.38108185
00000000: 4e7a e23e e3df 6c3e 550f f8bd 1c70 3ebe
00000010: 8afb 693d 8195 39bd 57a1 e8be 4ccd b83e
00000020: 1427 64be bf14 a6bd b6cd dcbe 7039 c5bc
00000030: a3b7 a33d aeae 85be 8814 0a3e 1093 9cbd
00000040: b636 dcbe 9864 85be e0f7 8f3e fc80 8abe
00000050: 8a3e 00be ac64 e9be 2bb8 d93e b480 983d
00000060: 0632 9a3e 0e00 a13d 1870 98be 387d 51be
00000070: 3a0b 94bd d6ed d4be 1a8e c23e 9755 8fbd
00000080: a087 9d3e 6407 88be 9afd 37be f3c4 833d
00000090: 23b2 c03e 7349 f9be e90f 2d3e bfb0 42be
000000a0: 3ec5 b43d 0c14 c33e 9353 23be db72 6a3e
000000b0: dc76 74be 08f3 abbe f8fa 93be 6de3 5dbe
000000c0: b05a 333e dcb6 183e 450d 553d f008 a6be
000000d0: 1948 d33e 69ca f1be e319 c33e 2650 bfbd
000000e0: b938 a63e bf09 833e 30dd 953e 84dc c03e
000000f0: e4d9 923e 12c6 513d bab4 153d 291d c33e

norm1.weight f4 [64]
1.0006042 0.99796677 0.9902538 1.0 1.0123109 0.9845301 1.0 0.9740414
0.98785865 1.0050138 1.0 1.0 1.0115149 0.9996016 1.0042363 1.007257
1.0 0.9758762 0.98822546 1.0129786 1.0053194 1.0 1.0116892 1.0
1.0133706 1.0091996 1.0 1.0021495 1.0 1.0 1.0143759 1.0084687
1.0127714 1.0 1.0 1.0206149 1.0063137 1.0 0.9998201 1.001676
1.0 1.0184176 1.011969 1.0186926 1.0 1.0 1.0 1.0
1.0116433 1.0121891 0.9896857 1.0125306 1.0140363 1.0 0.9939658 1.0
1.0222014 1.0012715 0.97619236 1.00602 0.9965518 1.0120479 0.97631556 0.98284674
00000000: cc13 803f c07a 7f3f 4681 7d3f 0000 803f
00000010: 6793 813f 2a0a 7c3f 0000 803f c75a 793f
00000020: 4ee4 7c3f 4ba4 803f 0000 803f 0000 803f
00000030: 5279 813f e4e5 7f3f d18a 803f cced 803f
00000040: 0000 803f 06d3 793f 58fc 7c3f 48a9 813f
00000050: 4eae 803f 0000 803f 087f 813f 0000 803f
00000060: 21b6 813f 742d 813f 0000 803f 6f46 803f
00000070: 0000 803f 0000 803f 12d7 813f 8115 813f
00000080: 7ea2 813f 0000 803f 0000 803f 82a3 823f
00000090: e3ce 803f 0000 803f 36f4 7f3f eb36 803f
000000a0: 0000 803f 825b 823f 3388 813f 8564 823f
000000b0: 0000 803f 0000 803f 0000 803f 0000 803f
000000c0: 877d 813f 6a8f 813f 0b5c 7d3f 9a9a 813f
000000d0: f1cb 813f 0000 803f 8b74 7e3f 0000 803f
000000e0: 7fd7 823f aa29 803f bee7 793f 43c5 803f
000000f0: 051e 7f3f c98a 813f d1ef 793f d89b 7b3f

norm1.bias f4 [64]
0.0020516485 0.0008868786 -0.009970909 0.0 0.020573275 -0.016030274 0.0 -0.020108745
-0.022711717 0.008479865 0.0 0.0 0.018789688 0.0018981626 0.0015069006 0.016043609
0.0 -0.0203736 -0.010583777 0.016944451 0.01138871 0.0 0.017656917 0.0
0.01588858 0.017159857 0.0 0.007647194 0.0 0.0 0.020802116 0.017830946
0.034850743 0.0 0.0 0.025616514 0.00010127805 0.0 -0.0009930396 0.0017422995
0.0 0.020861467 0.018601045 0.032807037 0.0 0.0 0.0 0.0
0.022829387 0.017014204 -0.01980385 0.018725649 0.008843939 0.0 0.020493304 0.0
0.019646589 0.0017811503 -0.004437798 0.005605582 -0.0013013335 0.017424041 -0.0074841734 -0.008580014
00000000: f374 063b 6a7d 683a 065d 23bc 0000 0000
00000010: 4989 a83c ec51 83bc 0000 0000 18bb a4bc
00000020: ec0d babc 22ef 0a3c 0000 0000 0000 0000
00000030: d5ec 993c c5cb f83a 3283 c53a e36d 833c
00000040: 0000 0000 89e6 a6bc 9467 2dbc 17cf 8a3c
00000050: b697 3a3c 0000 0000 3da5 903c 0000 0000
00000060: c428 823c d492 8c3c 0000 0000 5095 fa3b
00000070: 0000 0000 0000 0000 3369 aa3c 3412 923c
00000080: a7bf 0e3d 0000 0000 0000 0000 b9d9 d13c
00000090: 3d65 d438 0000 0000 e128 82ba df5d e43a
000000a0: 0000 0000 abe5 aa3c 3861 983c ac60 063d
000000b0: 0000 0000 0000 0000 0000 0000 0000 0000
000000c0: b204 bb3c 5f61 8b3c af3b a2bc 8866 993c
000000d0: 2be6 103c 0000 0000 93e1 a73c 0000 0000
000000e0: e2f1 a03c 7d75 e93a f36a 91bb 08af b73b
000000f0: 8291 aaba ddbc 8e3c cc3d f5bb 3093 0cbc

fc2.weight f4 [64, 64]
0.09076897 -0.08672504 -0.054483406 -0.09833278 -0.07743211 -0.025280546 -0.044709384 0.10086779
-0.04728727 0.031766526 -0.011331186 0.10145596 -0.02580635 -0.054179203 0.011691834 0.039619803
0.11746845 -0.065844856 -0.029244829 -0.0570184 -0.06977331 0.036407247 0.06084578 -0.032031894
0.045546096 -0.0026424958 0.085707754 0.030601526 -0.07411888 -0.11609985 0.051063657 -0.09564428
-0.037691437 0.07873377 0.025657773 0.07123361 0.10232621 -0.06854041 -0.03176449 -0.1154323
0.010788456 -0.092039004 0.018524786 -0.01888542 0.040890038 0.094827905 0.10479993 0.09481478
0.029186754 -0.06027042 0.04156685 -0.06542882 0.07040827 -0.08649589 0.008450757 0.09887695
0.12044519 -0.042530462 0.04049719 -0.04296144 -0.087724105 -0.054087695 0.02332739 -0.027912848
0.0635612 0.08196015 0.06386431 0.057795882 -0.11608061 -0.00070391514 -0.004661262 0.0031274825
-0.0013660052 -0.02544897 -0.057251453 0.063760474 0.11836191 0.070836656 -0.021511454 0.058533188
-0.11248757 0.10879848 0.086339265 -0.00036143622 -0.049782276 -0.10261503 0.0510319 0.123686194
0.08603262 0.039857507 0.006622821 0.050411828 -0.10131483 -0.052155823 0.030469652 -0.03777125
0.0003560612 -0.096559525 -0.00063341856 0.03822143 -0.13061295 -0.06769091 -0.06971869 -0.12181358
0.004489824 0.050936367 -0.030094814 -0.051697508 0.084310845 0.07516575 -0.06305431 -0.1244611
-0.024317537 0.046692125 0.076662116 -0.101025686 -0.117008716 0.08734694 0.0675686 -0.09605259
0.033101164 0.069919884 -0.10954214 -0.10736597 -0.10896043 0.07394371 0.006953485 0.051973633
-0.032405384 -0.017411495 0.050633647 0.015658721 -0.07767278 -0.06384234 0.10877478 -0.081949584
-0.077430144 0.009444292 -0.009103641 0.048897862 -0.006574457 -0.030675167 0.08735518 -0.08124949
-0.009583592 0.039499167 0.023319308 -0.0953066 0.09295942 0.03685929 -0.04617461 -0.11221568
-0.06731873 0.020326482 -0.09439497 0.016916258 0.02759175 0.058121502 -0.07057462 0.04561574
0.016139716 0.084661156 0.008332357 0.08932697 -0.008628408 -0.04328884 -0.02521794 0.0968293
-0.043595284 -0.022114469 -0.0657503 0.1477587 0.0573228 -0.051444173 -0.039897293 0.053785443
0.03328679 -0.07211663 0.03296231 0.14038493 0.14128415 0.10953522 0.032423764 0.12080805
0.1360808 -0.0619071 0.11894944 -0.031199683 -0.07110937 -0.05838107 0.11077987 0.10585273
-0.06064315 -0.07254622 -0.061100293 -0.0036254078 -0.13873343 0.098879464 -0.051222548 0.065368846
0.015108084 -0.09074613 0.09204498 -0.026290625 -0.08666288 0.0124261025 0.09463041 0.06361187
0.06711815 0.09693481 0.046404812 -0.021664752 -0.040362597 -0.013265774 -0.087243594 0.05962886
0.072628975 0.036358654 -0.078042075 0.10028964 -0.07457426 0.12043762 -0.017418582 -0.028368616
-0.13211742 0.0007160157 0.023254365 -0.09955816 -0.14550298 0.056762025 -0.014789171 0.031533796
0.12334271 -0.08296761 -0.05123325 -0.0027195206 -0.07762514 0.040434226 -0.056270048 -0.06404661
-0.029751476 0.085257426 0.083457924 0.060312696 0.066777065 0.09767383 -0.103342414 -0.07441698
-0.071304016 -0.14262223 0.009056124 0.01796784 0.08106417 -0.051346783 -0.006377092 0.05648426
00000000: 15e5 b93d e69c b1bd fe29 5fbd b262 c9bd
00000010: ba94 9ebd 2619 cfbc 3021 37bd c693 ce3d
00000020: 4cb0 41bd 9e1d 023d 70a6 39bc 24c8 cf3d
00000030: d767 d3bc 03eb 5dbd 1b8f 3f3c 6048 223d
00000040: 4c93 f03d abd9 86bd da92 efbc 208c 69bd
00000050: 4fe5 8ebd c41f 153d 6d39 793d e033 03bd
00000060: 8b8e 3a3d b92d 2dbb 8c87 af3d 0db0 fa3c
00000070: a4cb 97bd c2c5 edbd 2028 513d 26e1 c3bd
00000080: 5662 1abd 2c3f a13d 4030 d23c ede2 913d
00000090: 6790 d13d ea5e 8cbd 7b1b 02bd c567 ecbd
000000a0: 10c2 303c f27e bcbd 4bc1 973c 99b5 9abc
000000b0: 507c 273d 2235 c23d 58a1 d63d 402e c23d
000000c0: 0f19 ef3c 1ede 76bd 0042 2a3d 8cff 85bd
000000d0: 3632 903d c224 b1bd 0b75 0a3c 0080 ca3d
000000e0: f8ab f63d 6c34 2ebd 62e0 253d 56f8 2fbd
000000f0: b2a8 b3bd 0f8b 5dbd 1519 bf3c 7ca9 e4bc
00000100: 602c 823d b9da a73d 4bcb 823d 60bb 6c3d
00000110: acbb edbd f286 38ba 80bd 98bb 73f6 4c3b
00000120: 870b b3ba 5c7a d0bc 8080 6abd da94 823d
00000130: bb67 f23d cf12 913d ca38 b0bc 7fc0 6f3d
00000140: e25f e6bd bdd1 de3d a4d2 b03d 267f bdb9
00000150: 80e8 4bbd d427 d2bd d306 513d 304f fd3d
00000160: df31 b03d a041 233d 4004 d93b a27c 4e3d
00000170: 267e cfbd 58a1 55bd 7e9b f93c 07b6 1abd
00000180: baad ba39 00c1 c5bd 000c 26ba 138e 1c3d
00000190: 67bf 05be 88a1 8abd acc8 8ebd 6679 f9bd
000001a0: 601f 933b a7a2 503d 6689 f6bc c4c0 53bd
000001b0: 2aab ac3d 80f0 993d 9e22 81bd 76e5 febd
000001c0: 9235 c7bc 3e40 3f3d 0701 9d3d 8ee6 cebd
000001d0: 44a2 efbd f4e2 b23d 6861 8a3d 38b7 c4bd
000001e0: 1695 073d 2832 8f3d a157 e0bd b1e2 dbbd
000001f0: a526 dfbd cd6f 973d 0fda e33b 4ee2 543d
00000200: 82bb 04bd 8da2 8ebc 3a65 4f3d b846 803c
00000210: e812 9fbd c6bf 82bd 50c5 de3d 2fd5 a7bd
00000220: b293 9ebd 3bbc 1a3c 7027 15bc 2049 483d
00000230: 8b6e d7bb 7d4a fbbc 46e7 b23d 2266 a6bd
00000240: 8004 1dbc e1c9 213d 2208 bf3c 1b30 c3bd
00000250: 8261 be3d c4f9 163d 9621 3dbd 56d1 e5bd
00000260: 67de 89bd b983 a63c 2652 c1bd f793 8a3c
00000270: 1808 e23c d010 6e3d 6d89 90bd 92d7 3a3d
00000280: 7037 843c d462 ad3d 7084 083c 0ff1 b63d
00000290: 2b5e 0dbc a44f 31bd da95 cebc 714e c63d
000002a0: f890 32bd 6729 b5bc 18a8 86bd 0f4e 173e
000002b0: 50cb 6a3d 20b7 52bd 586b 23bd 204e 5c3d
000002c0: bb57 083d e2b1 93bd 7d03 073d 11c1 0f3e
000002d0: cbac 103e 0054 e03d c8ce 043d 366a f73d
000002e0: c458 0b3e 4d92 7dbd c49b f33d 7a96 ffbc
000002f0: caa1 91bd fd20 6fbd 8ee0 e23d 51c9 d83d
00000300: f464 78bd 1d93 94bd 4d44 7abd 4098 6dbb
00000310: 2310 0ebe 5181 ca3d bcce 51bd 1ae0 853d
00000320: e687 773c 1bd9 b9bd 1482 bc3d 705f d7bc
00000330: 4f7c b1bd da96 4b3c 97cd c13d f146 823d
00000340: 3e75 893d c285 c63d f912 3e3d 477a b1bc
00000350: 4053 25bd b058 59bc c5ac b2bd 643d 743d
00000360: 80be 943d d0ec 143d 86d4 9fbd a864 cd3d
00000370: 64ba 98bd 00a8 f63d 6ab1 8ebc 4d65 e8bc
00000380: ca49 07be 00b3 3b3a f07f be3c 26e5 cbbd
00000390: bcfe 14be 4c7f 683d 474e 72bc 9529 013d
000003a0: 1a9b fc3d ecea a9bd f5d9 51bd fc39 32bb
000003b0: eef9 9ebd 5c9e 253d 6c7b 66bd de2a 83bd
000003c0: 5eb9 f3bc 729b ae3d fdeb aa3d 720a 773d
000003d0: 6ac2 883d 3809 c83d 30a5 d3bd ee67 98bd
000003e0: d707 92bd 900b 12be 2360 143c 4b31 933c
000003f0: f904 a63d 0151 52bd edf6 d0bb 0a5c 673d

fc2.bias f4 [64]
0.10906921 0.05529894 -0.032800373 -0.05659755 0.0656177 0.0893728 0.029210301 -0.019425105
-0.06319476 -0.13091314 -0.04035043 0.017949456 -0.042298194 0.06510077 0.03298818 -0.004224073
-0.0736379 -0.017511073 0.027252965 -0.047996186 -0.124595545 0.012057805 0.047491275 -0.015098858
0.007923809 0.07945423 0.032781914 -0.05087406 -0.09797032 -0.11628871 -0.016289903 0.039311673
0.10702442 -0.11346603 -0.02627492 0.09532723 -0.008547619 0.057081934 -0.034585595 -0.12031124
0.030437052 0.09781206 0.083123 -0.1304686 0.02002543 -0.0021014789 0.046626322 0.036761668
-0.003044313 0.05324058 0.10486343 -0.04061873 0.0652436 -0.07217629 -0.08291914 -0.0015308562
-0.070568815 -0.07444906 0.052120134 0.05663573 0.05675984 -0.052137226 0.051165316 0.132435
00000000: ae5f df3d 2481 623d af59 06bd d5d2 67bd
00000010: 9362 863d 1609 b73d 714a ef3c 6621 9fbc
00000020: 416c 81bd 180e 06be 7e46 25bd bd0a 933c
00000030: df40 2dbd 8d53 853d 9d1e 073d 186a 8abb
00000040: 78cf 96bd 6273 8fbc 9c41 df3c a697 44bd
00000050: f32b ffbd 1a8e 453c 3686 423d 3361 77bc
00000060: ddd2 013c e6b8 a23d 5446 063d 5161 50bd
00000070: aaa4 c8bd c628 eebd 6772 85bc 4705 213d
00000080: 9e2f db3d e160 e8bd 803e d7bc ec3a c33d
00000090: 500b 0cbc bfce 693d a0a9 0dbd bd65 f6bd
000000a0: 2057 f93c b051 c83d 643c aa3d 9099 05be
000000b0: 5f0c a43c f7b8 09bb 3efb 3e3d 6793 163d
000000c0: 1983 47bb cb12 5a3d a3c2 d63d d35f 26bd
000000d0: 709e 853d 2ad1 93bd 83d1 a9bd 03a7 c8ba
000000e0: 6286 90bd c078 98bd ec7b 553d defa 673d
000000f0: 027d 683d d88d 55bd b992 513d 0a9d 073e

norm2.weight f4 [64]
1.0 1.0875831 1.0 0.9878234 1.0 1.0856467 1.1125445 0.98920333
1.0 0.9940009 1.0 1.0 1.1046984 1.0017234 1.1121267 1.1107473
1.0833633 1.0914446 0.99295586 1.0 0.99863034 0.995115 1.090839 1.0
0.9994689 1.0998204 0.9849245 1.0 1.0 0.9977097 0.9965788 1.0
1.0876067 1.0 0.9938213 1.0776342 0.9989778 1.0 0.9962483 0.99847853
0.9931266 0.99023336 1.0014368 0.99463785 1.0 1.0 0.9946509 1.0022113
1.0011268 0.99924785 0.9986338 1.11816 1.0830609 1.1215308 1.0015491 0.9975694
0.99925953 1.1247314 1.0 1.0 1.132189 1.0 1.0920622 1.1004192
00000000: 0000 803f ec35 8b3f 0000 803f ffe1 7c3f
00000010: 0000 803f 79f6 8a3f dc67 8e3f 6e3c 7d3f
00000020: 0000 803f d876 7e3f 0000 803f 0000 803f
00000030: c266 8d3f 7938 803f 2b5a 8e3f f82c 8e3f
00000040: a6ab 8a3f 75b4 8b3f 5b32 7e3f 0000 803f
00000050: 3da6 7f3f dbbf 7e3f 9da0 8b3f 0000 803f
00000060: 32dd 7f3f eac6 8c3f 0324 7c3f 0000 803f
00000070: 0000 803f e769 7f3f ca1f 7f3f 0000 803f
00000080: b236 8b3f 0000 803f 136b 7e3f ebef 893f
00000090: 02bd 7f3f 0000 803f 210a 7f3f 4a9c 7f3f
000000a0: 8b3d 7e3f ef7f 7d3f 152f 803f 96a0 7e3f
000000b0: 0000 803f 0000 803f 71a1 7e3f 7648 803f
000000c0: ec24 803f b5ce 7f3f 77a6 7f3f de1f 8f3f
000000d0: bda1 8a3f 528e 8f3f c332 803f b560 7f3f
000000e0: 79cf 7f3f 33f7 8f3f 0000 803f 0000 803f
000000f0: 92eb 903f 0000 803f b2c8 8b3f 89da 8c3f

norm2.bias f4 [64]
0.0 0.09169063 0.0 -0.017753888 0.0 0.092821114 0.095117286 -0.015938865
0.0 -0.009566468 0.0 0.0 0.09278553 0.004373339 0.09773651 0.09997387
0.08559485 0.08827815 -0.011234397 0.0 -0.0026440434 -0.006876292 0.08542992 0.0
-0.0011533458 0.093985386 -0.023229005 0.0 0.0 -0.0029348321 -0.0047331047 0.0
0.09205044 0.0 -0.008604091 0.07769419 -0.0015337438 0.0 -0.005337846 -0.0015695496
-0.010679987 -0.014563634 0.0018655938 -0.007370607 0.0 0.0 -0.0076088784 0.004487251
0.0023956862 -0.0007037705 -0.0018596852 0.10254251 0.10084922 0.099113464 0.0017482897 -0.003149736
-0.0031027237 0.09975226 0.0 0.0 0.10729606 0.0 0.09923989 0.0903908
00000000: 0000 0000 4cc8 bb3d 0000 0000 9a70 91bc
00000010: 0000 0000 ff18 be3d dacc c23d 3992 82bc
00000020: 0000 0000 adbc 1cbc 0000 0000 0000 0000
00000030: 5706 be3d 3a4e 8f3b 142a c83d 1abf cc3d
00000040: 5a4c af3d 2dcb b43d 7a10 38bc 0000 0000
00000050: b047 2dbb 8552 e1bb e2f5 ae3d 0000 0000
00000060: dd2b 97ba 697b c03d c14a bebc 0000 0000
00000070: 0000 0000 5056 40bb 2918 9bbb 0000 0000
00000080: f184 bc3d 0000 0000 2cf8 0cbc 221e 9f3d
00000090: e707 c9ba 0000 0000 19e9 aebb 58b9 cdba
000000a0: 1dfb 2ebc 4f9c 6ebc f186 f43a 2285 f1bb
000000b0: 0000 0000 0000 0000 e653 f9bb ca09 933b
000000c0: f200 1d3b 3d7d 38ba aec0 f3ba cf01 d23d
000000d0: 098a ce3d 00fc ca3d de26 e53a cd6b 4ebb
000000e0: 1157 4bbb ea4a cc3d 0000 0000 0000 0000
000000f0: 09be db3d 0000 0000 493e cb3d d01e b93d

vf.weight f4 [1, 64]
0.0654984 0.12363578 0.03857164 -0.06819365 -0.11447792 0.13762197 0.2162816 -0.028250854
0.014300108 -0.07454713 -0.10668531 0.027309567 0.1990819 0.0148268165 0.17447726 0.1444411
0.16210814 0.1984394 -0.10069725 0.0090831965 -0.0681325 -0.08472298 0.13188772 -0.023152694
-0.0051768976 0.17695932 -0.06539406 -0.0048619807 -0.082191795 -0.1157474 -0.118080765 0.03507197
0.1943875 0.08850847 -0.06723869 0.17369471 -0.05215612 -0.029603511 -0.107987404 -0.106099494
-0.10215743 -0.077145614 0.007237877 -0.09225967 0.052563146 0.06918821 -0.0773448 0.013476725
0.017303199 -0.11833237 0.002067092 0.14124045 0.09625986 0.19486582 0.011747447 -0.11599957
-0.101170175 0.21343645 0.050761864 0.10491373 0.19631259 0.0840113 0.13249458 0.14632691
00000000: 0624 863d c134 fd3d 4cfd 1d3d 1da9 8bbd
00000010: 6673 eabd c6ec 0c3e ec78 5d3e 566e e7bc
00000020: 004b 6a3c 2aac 98bd d47d dabd 50b8 df3c
00000030: 20dc 4b3e 2dec 723c 2baa 323e 5ee8 133e
00000040: adff 253e b333 4b3e 5c3a cebd b0d1 143c
00000050: 0d89 8bbd 3e83 adbd 930d 073e b8aa bdbc
00000060: f7a2 a9bb d334 353e 52ed 85bd 4051 9fbb
00000070: 2c54 a8bd f90c edbd 54d4 f1bd a0a7 0f3d
00000080: 840d 473e ee43 b53d 70b4 89bd 07dd 313e
00000090: a8a1 55bd 1083 f2bc 8028 ddbd b14a d9bd
000000a0: ea37 d1bd 85fe 9dbd b72b ed3b a3f2 bcbd
000000b0: 744c 573d 8cb2 8d3d f366 9ebd 7bcd 5c3c
000000c0: 70bf 8d3c 3e58 f2bd 0d78 073b 56a1 103e
000000d0: e423 c53d e88a 473e 5d78 403c 2f91 edbd
000000e0: 4f32 cfbd 168f 5a3e aceb 4f3d 02dd d63d
000000f0: 2b06 493e 1e0e ac3d a9ac 073e b9d6 153e

tactic_head.weight f4 [4, 64]
0.012023091 -0.034077242 -0.06383802 0.03743281 -0.10118842 0.114138044 -0.034003917 0.10867042
-0.0011847615 -0.017801652 -0.12205714 -0.029409006 -0.06611126 0.03801518 -0.06164926 0.036438953
0.110651776 -0.102034666 -0.06657411 -0.07161027 -0.028311957 0.012740594 0.057382945 0.04474801
-0.029796846 -0.01549495 0.049620815 0.06267707 0.08620268 0.08919443 0.013336474 0.10159777
0.03152544 -0.05383967 -0.044113543 -0.009869464 -0.09982716 0.09369464 0.0736001 -0.1088018
-0.12126743 0.094331525 -0.11742647 0.074094296 -0.09125009 0.088219404 0.033992853 0.082902
0.09506514 0.09732948 -0.01203277 0.0006200681 -0.0038298168 0.061112367 -0.11328161 -0.012053604
0.069169335 -0.12025351 -0.11156015 0.058795795 -0.004073981 -0.10370509 0.100890405 0.0057067373
-0.0034195036 0.07121646 0.11714366 0.012829594 -0.079119965 -0.00053708715 -0.015254085 0.07869331
-0.115376964 -0.050484564 0.07186933 0.049112916 0.11927427 -0.0004575859 -0.048893984 -0.0957825
-0.10825022 -0.020192532 0.10962905 -0.10880171 -0.086997226 0.06746149 0.06658949 -0.08551982
0.029153813 -0.04345154 -0.039993193 0.05312586 -0.01647681 0.017892722 0.03043604 -0.015916333
-0.05982709 0.004228011 -0.08853509 -0.08320564 0.03169423 -0.004222527 0.08974202 -0.050414447
-0.115968026 0.033945903 -0.12060702 0.043352664 2.5480986e-06 0.012925848 -0.023681486 -0.016485253
0.020335164 -0.038317416 0.11679441 0.021353861 0.0513958 0.115408435 0.024366064 -0.058696784
0.08921899 0.07348817 0.08581692 0.07695928 0.07481873 0.109679386 0.048314296 -0.02173742
-0.09998383 0.10244967 0.055810094 -0.07709333 0.070807904 -0.009152217 0.053267267 -0.034784198
-0.11090872 0.08444548 -0.10790253 -0.031500533 0.057709143 -0.07275598 -0.09879391 0.01416109
-0.077168606 0.11592805 0.027990367 0.060943455 -0.11256497 -0.024510799 0.07730506 -0.06271884
-0.10912726 -0.10479032 0.112973236 -0.04662417 0.10831919 0.026868343 -0.118792176 0.010223776
0.01784418 -0.03209676 -0.013774512 -0.10892381 0.05889517 -0.014060155 -0.08021107 0.07490512
0.03590454 0.069167875 0.02747582 0.11795356 0.07041712 0.00866735 -0.08715176 -0.03960398
0.03615574 0.029972123 -0.013596939 0.034363374 -0.0054624393 -0.12932865 -0.11373279 -0.03659347
-0.122508734 0.09722529 0.12435646 0.07150249 -0.07972337 -0.0729263 0.11121181 -0.090018325
0.11184901 0.009627394 -0.067867786 -0.10961247 0.053863004 -0.019534836 0.06745934 -0.11271121
0.10653429 -0.11653299 -0.06952119 0.11948562 0.053706765 -0.078754306 0.039793797 0.039025918
0.1240434 0.11951748 0.087999105 -0.0061505586 0.06790508 0.10971353 -0.096440576 -0.014292479
-0.09429842 0.06574048 -0.035508383 0.03924012 -0.05862829 -0.06426109 -0.076488055 0.029210702
-0.07618376 -0.057617173 0.004376411 0.11951857 0.005642001 0.0073762834 -0.08105029 0.088882856
-0.032413043 0.055653047 0.034941204 0.067783445 -0.018282577 -0.06867634 0.10185912 -0.026783053
0.091141626 0.004157772 0.009231968 0.11700432 -0.014604719 -0.0070683868 -0.06507135 -0.099910356
0.09731437 0.02366703 -0.06753127 0.027171627 -0.0051931245 0.068354815 0.08334062 0.1270679
00000000: 80fc 443c 9494 0bbd 82bd 82bd 2553 193d
00000010: e03b cfbd 35c1 e93d b147 0bbd 998e de3d
00000020: 004a 9bba c5d4 91bc 18f9 f9bd 28eb f0bc
00000030: 5765 87bd ceb5 1b3d ef83 7cbd 0341 153d
00000040: 669d e23d 8df7 d0bd 0258 88bd 68a8 92bd
00000050: 7aee e7bc edbd 503c 610a 6b3d b049 373d
00000060: 8418 f4bc 88de 7dbc 323f 4b3d d65c 803d
00000070: 088b b03d 92ab b63d 3a81 5a3c 7e12 d03d
00000080: d220 013d fc86 5cbd 67b0 34bd 88b3 21bc
00000090: 2f72 ccbd fae2 bf3d a6bb 963d 7ad3 debd
000000a0: 0f5b f8bd e330 c13d 4a7d f0bd c0be 973d
000000b0: 54e1 babd 60ac b43d 173c 0b3d 86c8 a93d
000000c0: 83b1 c23d ae54 c73d 1825 45bc 118c 223a
000000d0: aafd 7abb f650 7a3d 3000 e8bd 7b7c 45bc
000000e0: a7a8 8d3d 7947 f6bd a679 e4bd dcd3 703d
000000f0: 087f 85bb 5663 d4bd a19f ce3d 95ff ba3b
00000100: c019 60bb efd9 913d 04e9 ef3d 3833 523c
00000110: a609 a2bd 4fcb 0cba 45ec 79bc f529 a13d
00000120: c24a ecbd e7c8 4ebd 3a30 933d a02a 493d
00000130: 1246 f43d 24e8 efb9 0f45 48bd 9e29 c4bd
00000140: 4bb2 ddbd cf6a a5bc 3285 e03d 6ed3 debd
00000150: 9a2b b2bd 4029 8a3d 1260 883d 0425 afbd
00000160: fad3 ee3c 3efa 31bd e7cf 23bd 809a 593d
00000170: 60fa 86bc c293 923c 0155 f93c f862 82bc
00000180: 400d 75bd 208b 8a3b e351 b5bd b867 aabd
00000190: cfd1 013d 205d 8abb aaca b73d 617f 4ebd
000001a0: a580 edbd dc0a 0b3d d000 f7bd 9092 313d
000001b0: 0000 2b36 f0c6 533c adff c1bc 150c 87bc
000001c0: ee95 a63c b9f2 1cbd e831 ef3d 4bee ae3c
000001d0: 6784 523d 425b ec3d 579b c73c 0a6c 70bd
000001e0: 72b8 b63d f780 963d c8c0 af3d d49c 9d3d
000001f0: 903a 993d 969f e03d 36e5 453d ac12 b2bc
00000200: 52c4 ccbd 22d1 d13d 2099 643d 1ce3 9dbd
00000210: bc03 913d 2ef3 15bc c72e 5a3d e079 0ebd
00000220: 1c24 e3bd c0f1 ac3d 00fc dcbd b406 01bd
00000230: 6c60 6c3d 1601 95bd 7654 cabd eb03 683c
00000240: 930a 9ebd af6b ed3d 0e4c e53c d89f 793d
00000250: 7788 e6bd dfca c8bc 1e52 9e3d bc72 80bd
00000260: 1d7e dfbd 4f9c d6bd 835e e73d fcf8 3ebd
00000270: 74d6 dd3d 001b dc3c 5049 f3bd a081 273c
00000280: f52d 923c e477 03bd 7eae 61bc 7213 dfbd
00000290: 103c 713d 905c 66bc b445 a4bd db67 993d
000002a0: a410 133d e3a7 8d3d f914 e13c a391 f13d
000002b0: da36 903d 8001 0e3c 9f7c b2bd c837 22bd
000002c0: 0b18 143d 1988 f53c b2c5 5ebc 9cc0 0c3d
000002d0: 43fe b2bb bb6e 04be bdec e8bd 09e3 15bd
000002e0: dce5 fabd 0e1e c73d 9aae fe3d e66f 923d
000002f0: 0246 a3bd 625a 95bd 04c3 e33d 875b b8bd
00000300: 1811 e53d 38bc 1d3c 44fe 8abd 817c e0bd
00000310: 749f 5c3d 8507 a0bc 1f28 8a3d 23d5 e6bd
00000320: a62e da3d d9a8 eebd 2061 8ebd e0b4 f43d
00000330: a0fb 5b3d f049 a1bd d2fe 223d a4d9 1f3d
00000340: 770a fe3d 95c5 f43d e038 b43d a08a c9bb
00000350: d211 8b3d 7db1 e03d a382 c5bd 002b 6abc
00000360: 881f c1bd f2a2 863d 3d71 11bd 40ba 203d
00000370: 3824 70bd 519b 83bd c5a5 9cbd 484b ef3c
00000380: 3b06 9cbd fcff 6bbd ff67 8f3b 27c6 f43d
00000390: 89e0 b83b c0b4 f13b b2fd a5bd 3708 b63d
000003a0: 8ac3 04bd 73f4 633d 821e 0f3d 0cd2 8a3d
000003b0: 58c5 95bc 2ea6 8cbd 849b d03d 2268 dbbc
000003c0: 76a8 ba3d eb3d 883b ae41 173c f69f ef3d
000003d0: a248 6fbc ed9d e7bb 2144 85bd cd9d ccbd
000003e0: c24c c73d 5ce1 c13c d64d 8abd 0897 de3c
000003f0: 162b aabb 9cfd 8b3d 7dae aa3d 161e 023e

tactic_head.bias f4 [4]
0.009373039 -0.094777524 0.060805496 -0.020437472
00000000: 6091 193c b81a c2bd 2f0f 793d 7c6c a7bc
