bots/HD_PPO/model.pt (torch, 30843 bytes, 13 tensors)

fc1.weight f4 [64, 17]
0.23175152 0.207259 -0.16634355 0.030160436 -0.0013027834 0.11170258 0.013312366 0.09291642
0.00095599587 -0.21965875 -0.20751408 0.2392233 0.02770105 -0.11073505 -0.19454604 -0.016464833
-0.028030379 0.03877006 0.13858013 0.002663247 -0.17078897 -0.19114876 -0.15413986 0.058942277
-0.116946004 0.12139382 0.11224847 -0.03460525 0.0071609328 -0.065532826 0.2131352 -0.06577925
-0.059758514 -0.055313744 -0.093364224 -0.062552914 0.027582312 0.09236523 0.049593955 0.09778207
0.12913775 -0.01815307 0.23005846 0.08795348 0.22916935 0.092877015 -0.024824718 -0.1715917
-0.082453296 0.20606616 -0.09387394 -0.052283928 -0.12597178 0.08271215 0.0040236055 0.22362006
0.15005296 0.035709925 -0.077831864 0.13276738 0.037976176 -0.21323279 -0.217761 -0.07098604
0.16272078 0.059892848 -0.21552503 -0.14290404 0.20553586 0.18809974 -0.16202173 -0.059352927
-0.1129556 0.02118426 0.19633304 0.18872468 0.08773092 -0.036425095 -0.017674174 0.070340954
-0.12145824 0.24282135 -0.12179787 -0.07813257 -0.060299184 -0.070803255 -0.17550418 -0.14829311
-0.10111785 -0.039804455 -0.01754899 -0.23740096 -0.108526886 -0.049322303 -0.2279731 0.020800734
-0.15276359 0.042764682 -0.07691633 -0.05237184 0.14918537 -0.23600042 0.22595267 -0.059337012
0.153459 0.030949568 -0.13573521 -0.100416526 0.2086829 -0.15890929 0.16815376 0.20165166
0.116116956 0.13257654 0.22606412 0.15030445 -0.18626127 0.10900346 0.08017589 -0.21644376
0.1440373 -0.19240361 -0.19064601 -0.03923756 0.23580131 -0.108759075 -0.1891133 0.1547163
0.14976369 0.12143699 0.029586848 0.0069503007 -0.17341724 -0.20793247 -0.23742674 0.16242923
0.10262668 -0.121289164 0.091161326 -0.047028176 -0.030576883 0.22028078 0.019130137 -0.22034775
-0.20947836 0.030110767 -0.124501035 0.07855267 0.18878902 0.0036340544 0.20241986 0.09878839
-0.21708031 -0.1875593 -0.14246379 0.10443186 0.14275973 0.085606456 -0.20936313 0.10347248
0.064194694 -0.14314547 0.14030275 -0.111512735 -0.13154806 -0.012907297 -0.011939128 0.02410445
0.16195484 0.17687955 -0.24314809 -0.19187987 0.1423987 -0.026710188 -0.011264044 -0.22421701
-0.07023109 0.09927402 0.20451374 -0.009514066 0.09569993 -0.23494639 -0.1111762 0.020520583
0.14014967 0.23254052 0.0811808 -0.00044936332 0.07044585 -0.057842493 -0.16062728 0.04246275
0.07632618 0.10252373 -0.22689186 0.13856733 -0.08206374 -0.1211906 0.23071624 -0.054452326
0.17866354 0.059943322 0.1939548 -0.10270243 -0.08401315 0.15970543 0.14887892 0.11891189
0.02490305 -0.11718653 0.20366956 0.046117466 -0.13621622 -0.034520555 0.075713366 0.11826923
-0.20655851 0.14155427 0.20616275 0.14514616 0.10807466 -0.13258673 0.23313469 -0.14243823
-0.19831713 0.16501047 -0.015032039 -0.10261283 -0.15557976 -0.1300372 -0.13535008 0.2176862
-0.080702186 -0.12685458 0.24254158 -0.09518841 -0.14114673 -0.083761826 0.20577867 0.010500607
-0.0023839925 -0.050491296 -0.20783749 0.026529398 -0.12887323 0.06177779 -0.15315068 -0.23758367
-0.23328215 -0.2291539 0.13810831 -0.13679683 0.115470774 0.123603664 -0.10202689 0.15369734
00000000: 4550 6d3e b43b 543e f755 2abe 0513 f73c
00000010: 28c2 aaba 52c4 e43d 1c1c 5a3c f74a be3d
00000020: cc9b 7a3a 39ee 60be 927e 54be f4f6 743e
00000030: 50ed e23c 0fc9 e2bd 1437 47be 42e1 86bc
00000040: f79f e5bc 5bcd 1e3d f3e7 0d3e df89 2e3b
00000050: 4ee3 2ebe 80bc 43be d7d6 1dbe 756d 713d
00000060: 6381 efbd 539d f83d 87e2 e53d 3cbe 0dbd
00000070: 42a6 ea3b 1336 86bd 1d40 5a3e 45b7 86bd
00000080: 58c5 74bd aa90 62bd be35 bfbd be1b 80bd
00000090: 4df4 e13c fb29 bd3d 0823 4b3d f741 c83d
000000a0: b03c 043e bfb5 94bc 7294 6b3e f420 b43d
000000b0: 5fab 6a3e 4e36 be3d 355d cbbc bcb5 2fbe
000000c0: 46dd a8bd 0203 533e fb40 c0bd ac27 56bd
000000d0: bffe 00be fd64 a93d 73d8 833b a8fc 643e
000000e0: 7ca7 193e 9244 123d 5066 9fbd 2cf4 073e
000000f0: e88c 1b3d b259 5abe bdfc 5ebe 2161 91bd
00000100: 47a0 263e 3452 753d 98b2 5cbe 7055 12be
00000110: fe77 523e 389d 403e 06e9 25be 0e1c 73bd
00000120: 4455 e7bd 9d8a ad3c 870b 493e 0b41 413e
00000130: 45ac b33d 7b32 15bd 6ec9 90bc eb0e 903d
00000140: 19bf f8bd 29a6 783e 2971 f9bd f803 a0bd
00000150: 47fc 76bd 4c01 91bd 5eb7 33be 26da 17be
00000160: e016 cfbd ff09 23bd e6c2 8fbc 3d19 73be
00000170: 5843 debd 2f06 4abd c871 69be 4d66 aa3c
00000180: 0f6e 1cbe 052a 2f3d 4f86 9dbd db83 56bd
00000190: 0dc4 183e 18aa 71be 2360 673e 5e0b 73bd
000001a0: 5b24 1d3e f389 fd3c 2cfe 0abe 2ea7 cdbd
000001b0: f8b0 553e 1eb9 22be 8030 2c3e c67d 4e3e
000001c0: bace ed3d 25c2 073e 5a7d 673e 69e9 193e
000001d0: 46bb 3ebe 353d df3d 4233 a43d 6fa3 5dbe
000001e0: 847e 133e 7405 45be b538 43be 90b7 20bd
000001f0: e675 713e 14bd debd eba6 41be f36d 1e3e
00000200: a75b 193e f5b3 f83d 1e60 f23c 59bf e33b
00000210: 4a94 31be 40ec 54be ff1f 73be d953 263e
00000220: f02d d23d 7466 f8bd cab2 ba3d 9ea0 40bd
00000230: 5f7c fabc 4991 613e ceb6 9c3c d7a2 61be
00000240: 7f81 56be dbaa f63c 66fa febd 39e0 a03d
00000250: e951 413e 5129 6e3b 2747 4f3e 9151 ca3d
00000260: 4d4a 5ebe 8c0f 40be 07e2 11be 5fe0 d53d
00000270: 9b2f 123e 7052 af3d 4a63 56be 61e9 d33d
00000280: 8278 833d ba94 12be 86ab 0f3e ca60 e4bd
00000290: 89b4 06be 2179 53bc 559c 43bc b276 c53c
000002a0: 7dd7 253e ea1f 353e d0fb 78be 287c 44be
000002b0: f7d0 113e 53cf dabc d38c 38bc 2599 65be
000002c0: 51d5 8fbd 2d50 cb3d 0d6c 513e e3e0 1bbc
000002d0: 53fe c33d c995 70be 59b0 e3bd c81a a83c
000002e0: 6583 0f3e 1a1f 6e3e 1f42 a63d 8698 ebb9
000002f0: ea45 903d 40ec 6cbd 7a7b 24be 6ced 2d3d
00000300: e650 9c3d f6f7 d13d 5756 68be 98e4 0d3e
00000310: 0911 a8bd c732 f8bd e140 6c3e 6709 5fbd
00000320: 93f3 363e 2187 753d 169c 463e a755 d2bd
00000330: 160f acbd d289 233e b773 183e 1488 f33d
00000340: 7b01 cc3c 7eff efbd c18e 503e abe5 3c3d
00000350: 447c 0bbe 6d65 0dbd 9c0f 9b3d 2337 f23d
00000360: 1384 53be 9af3 103e 541c 533e 32a1 143e
00000370: 3f56 dd3d d1c4 07be dcba 6e3e 54db 11be
00000380: a513 4bbe 81f8 283e f148 76bc ad26 d2bd
00000390: 4d50 1fbe 7928 05be 3699 0abe 22e9 5e3e
000003a0: 3047 a5bd 2be6 01be d25c 783e 24f2 c2bd
000003b0: c588 10be 528b abbd a5b7 523e bd0a 2c3c
000003c0: c23c 1cbb f6cf 4ebd 5ad3 54be 2e54 d93c
000003d0: 58f7 03be b50a 7d3d 88d3 1cbe 2249 73be
000003e0: 84e1 6ebe 52a7 6abe 446c 0d3e 7814 0cbe
000003f0: f17b ec3d eb23 fd3d 79f3 d0bd d662 1d3e

fc1.bias f4 [64]
0.22899982 -0.18975069 0.04484997 0.05652112 0.14407513 -0.09317211 0.19880834 -0.003475386
-0.04863281 0.14350985 0.080154024 -0.24160188 0.01588081 0.10564168 0.22603746 -0.05457552
0.19291236 -0.20578021 0.04440084 -0.1256997 0.098689795 0.21211787 0.013252076 -0.20605427
0.08130512 0.025230678 -0.038389385 0.18479328 -0.0066086315 -0.18722895 -0.16982815 -0.0051520066
0.2259356 -0.17899841 -0.24068727 -0.0925275 0.12449086 0.104657255 0.15564816 -0.030729126
0.008226943 -0.09097102 0.14169241 -0.09745447 -0.21376011 -0.08010302 0.12711038 0.1067901
0.1889919 -0.18362413 0.17367558 -0.09129005 0.047703095 0.011865546 -0.10511006 -0.1663621
0.09854136 -0.18222082 0.10193187 0.19542353 -0.23773178 0.092828184 -0.19215508 -0.16779552
00000000: ee7e 6a3e 014e 42be 9ab4 373d b182 673d
00000010: 6e88 133e 05d1 bebd 6a94 4b3e 4dc3 63bb
00000020: 3333 47bd 3ff4 123e cb27 a43d 7c66 77be
00000030: 7918 823c aa5a d83d 5d76 673e 958a 5fbd
00000040: d18a 453e 0cb8 52be a8dd 353d 6cb7 00be
00000050: e01d ca3d 6d35 593e 3c1f 593c e4ff 52be
00000060: 4c83 a63d 91b0 ce3c 303e 1dbd 733a 3d3e
00000070: 388d d8bb f2b8 3fbe 6ee7 2dbe 2ad2 a8bb
00000080: a95b 673e 5c4b 37be b976 76be 0f7f bdbd
00000090: 10f5 fe3d 8b56 d63d 3b62 1f3e a6bb fbbc
000000a0: 4dca 063c 044f babd d117 113e 3696 c7bd
000000b0: eee3 5abe 0d0d a4bd 3929 023e c5b4 da3d
000000c0: 1887 413e f707 3cbe 03d8 313e 47f6 babd
000000d0: 5264 433d b567 423c f143 d7bd d45a 2abe
000000e0: 0dd0 c93d 1898 3abe a8c1 d03d 1b1d 483e
000000f0: f66f 73be b41c be3d 4dc4 44be 97d2 2bbe

norm1.weight f4 [64]
0.9989902 0.9993653 1.0010026 1.0024706 1.0026907 1.0 0.99977195 1.0019163
0.997711 1.0003802 0.9984782 0.99958813 0.9987754 1.000831 1.0027634 1.0027134
1.001155 1.0013579 1.0004628 0.99983793 1.0004351 0.99724764 0.9979402 0.9995453
1.0013597 1.0005305 0.9973172 0.9972219 1.0013124 0.9998191 1.000271 1.0
1.0018094 0.9997547 0.9998975 1.0001715 1.0002017 1.000188 0.99763054 0.99991703
0.9972757 0.9983968 0.99759096 1.000395 0.9990351 1.0017092 1.0010387 1.0019355
0.9998062 0.99961394 1.0010036 1.0010449 0.99870396 1.0009024 0.9979227 0.99869245
1.0003577 1.0 0.99935746 0.997293 1.00151 1.0000937 0.99973905 1.0005908
00000000: d2bd 7f3f 68d6 7f3f da20 803f f550 803f
00000010: 2b58 803f 0000 803f 0ef1 7f3f cb3e 803f
00000020: fd69 7f3f 750c 803f 449c 7f3f 02e5 7f3f
00000030: bfaf 7f3f 3b1b 803f 8d5a 803f ea58 803f
00000040: d925 803f 7f2c 803f 2a0f 803f 61f5 7f3f
00000050: 420e 803f 9f4b 7f3f 0279 7f3f 33e2 7f3f
00000060: 8e2c 803f 6211 803f 2e50 7f3f ef49 7f3f
00000070: 012b 803f 25f4 7f3f e108 803f 0000 803f
00000080: 4a3b 803f edef 7f3f 48f9 7f3f 9f05 803f
00000090: 9c06 803f 2906 803f b764 7f3f 90fa 7f3f
000000a0: 764d 7f3f ef96 7f3f 1f62 7f3f f20c 803f
000000b0: c4c0 7f3f 0238 803f 0922 803f 6c3f 803f
000000c0: 4df3 7f3f b3e6 7f3f e320 803f 3d22 803f
000000d0: 10ab 7f3f 921d 803f dd77 7f3f 4faa 7f3f
000000e0: b90b 803f 0000 803f e4d5 7f3f 984e 7f3f
000000f0: 7b31 803f 1203 803f e6ee 7f3f 5c13 803f

norm1.bias f4 [64]
-0.0013374785 -0.00054855144 0.0006020508 0.0026303942 0.0026409093 0.0 -9.4903015e-05 0.0017896887
-0.0027491117 0.0013816425 -0.001523936 -0.00024533801 -0.00103327 0.00082608324 0.0027634238 0.002925528
0.00093775836 0.002095698 0.0005300129 -0.00043316526 -0.000491301 -0.0025573203 -0.0023271905 -0.00088710035
0.0018037317 0.0015591957 -0.0025003464 -0.0027665214 0.0019509747 -0.00016282617 0.00014271015 0.0
0.0021399537 -0.00037446537 -5.973397e-05 0.0017882196 0.0012118372 0.00016299057 -0.0023898592 -0.00034064165
-0.0027490908 -0.0020670735 -0.002226343 -0.0004906764 -0.0022573883 0.0020011168 0.0011282795 0.0018208217
-0.00010854232 -0.0005514828 0.0016472179 0.0004942722 -0.0012246104 0.0010598053 -0.0023403177 -0.0013161645
-0.00012808546 0.0 -0.0007650366 -0.0028102798 0.0012366304 0.00031226058 0.00048586656 0.00061101146
00000000: 554e afba aacc 0fba f2d2 1d3a b162 2c3b
00000010: 1b13 2d3b 0000 0000 ab06 c7b8 fd93 ea3a
00000020: 712a 34bb 3b18 b53a cfbe c7ba b6a0 80b9
00000030: ca6e 87ba 828d 583a 8f1a 353b 37ba 3f3b
00000040: e6d3 753a fa57 093b 90f0 0a3a 751a e3b9
00000050: a7ca 00ba b798 27bb c783 18bb 4c8c 68ba
00000060: 316b ec3a ed5d cc3a dadc 23bb 874e 35bb
00000070: d9b7 ff3a 51bc 2ab9 77a4 1539 0000 0000
00000080: 773e 0c3b e453 c4b9 dd8a 7ab8 b162 ea3a
00000090: 82d6 9e3a 73e8 2a39 2f9f 1cbb 2698 b2b9
000000a0: 172a 34bb bd77 07bb d6e7 11bb bca0 00ba
000000b0: b1f0 13bb 2b25 033b c7e2 933a a3a8 ee3a
000000c0: 37a1 e3b8 6291 10ba 76e7 d73a 0c92 013a
000000d0: 1b83 a0ba 2ae9 8a3a 0460 19bb 2783 acba
000000e0: ae4e 06b9 0000 0000 bd8c 48ba ac2c 38bb
000000f0: 6e16 a23a e8b6 a339 e8bb fe39 492c 203a

fc2.weight f4 [64, 64]
0.07284548 -0.024471642 -0.019239325 0.030437265 0.114836246 -0.0741913 0.037301432 -0.11375237
0.0076497295 -0.022809304 -0.057573512 0.0050516445 0.05573628 -0.09564719 -0.055798855 0.103953
-0.028743068 -0.076604895 -0.04421515 -0.05787355 0.106707074 -0.095148385 0.0048856465 -0.03738128
0.04700203 0.053166676 0.028351339 0.01740518 0.039942257 -0.024911093 -0.072438404 0.014724955
-0.11425764 -0.0631606 -0.11867421 0.07738925 -0.016050603 0.035651032 0.04249393 -0.035780363
-0.0013130774 0.08746101 -0.0374234 -0.0968487 0.09998938 -0.07545484 0.04714258 0.082764864
0.08052176 0.10901484 0.015930533 0.10270299 -0.03875804 -0.121737406 0.067790546 0.030496735
-0.051852215 -0.11837019 0.08139551 -0.107044905 0.08140275 -0.033380736 0.066708595 0.058461748
0.019404156 0.027503006 0.11077629 -0.09069502 -0.023522222 0.0023280233 0.10178007 -0.019220822
-0.06949693 0.031311143 0.025996406 -0.093636595 -0.066916555 -0.117105454 -0.067285225 0.06529197
0.0869252 0.08856611 -0.010293644 0.003963315 0.051668655 0.053999975 -0.045778923 -0.0519895
0.09875661 0.042701777 0.05798501 0.089358725 -0.004676056 -0.051781334 -0.11315936 -0.041846156
-0.10189533 -0.074536845 -0.07662092 -0.05046613 0.06543954 -0.1250038 -0.015961722 0.009243293
-0.05533918 0.11458344 -0.090873994 0.018611982 0.108317874 -0.07142001 -0.081988126 -0.07085665
-0.09883174 -0.11816812 -0.080946945 0.063686214 0.12176742 0.06542649 -0.08364152 -0.0095228
0.030092893 0.046833813 0.0833498 -0.10070512 0.052989054 -0.0244969 -0.039513182 -0.06284638
0.06541183 -0.0030749217 -0.07925138 0.0033019206 0.052245043 -0.030239522 -0.10445193 -0.101088494
-0.09049256 -0.006825393 -0.10838453 -0.0312954 -0.035675388 -0.12322254 0.077940546 -0.08457787
-0.016087875 -0.0750719 -0.04391909 0.060702007 -0.11751865 -0.029602356 0.07895547 0.05378685
0.023684578 -0.060141183 -0.007543896 0.0151537275 -0.085214935 0.014734605 -0.121654905 -0.05740492
-0.103159994 0.057902016 -0.120458566 0.0040023495 0.069057 -0.04062818 0.11042662 0.042785943
-0.03591127 0.104881845 -0.095054634 -0.08534633 0.03566732 0.0069201435 0.077416316 -0.05508604
-0.050906617 0.06706713 0.107803054 -0.05961258 0.094330184 -0.028212193 0.08802195 -0.044946127
-0.09783984 0.11911148 -0.090780914 0.054679733 -0.03324092 -0.018994527 -0.08290511 -0.10312833
0.013947356 -0.009871667 -0.116249755 -0.05379522 -0.07363201 0.019578606 -0.06630944 -0.11237095
-0.0004812329 -0.10139355 -0.11567522 -0.027699044 0.048995633 -0.10408514 -0.055607855 -0.11211233
-0.08164318 -0.09611702 0.06745983 0.034861848 -0.08253396 -0.097626634 -0.016583608 0.109810434
-0.07383595 0.097061 0.0749586 0.03825606 -0.085808285 -0.047001597 -0.093311705 0.09812631
0.07426144 0.071914434 -0.063985415 0.11339658 -0.10614332 -0.0017037247 0.03585881 0.04357745
-0.0826925 0.08219604 0.012431569 -0.06509501 0.029356215 -0.058371738 -0.06751163 0.02735225
-0.068587914 -0.11678331 0.0359345 0.108126864 0.12409026 -0.09969686 0.11755585 -0.07479917
0.025908267 0.0039892495 -0.029960457 -0.08402288 0.09341243 0.057413895 -0.068210036 -0.044459954
00000000: 0330 953d c178 c8bc ca9b 9dbc 9257 f93c
00000010: 442f eb3d 9cf1 97bd 63c9 183d 01f7 e8bd
00000020: 95aa fa3b 94da babc 34d2 6bbd 4488 a53b
00000030: ba4b 643d ade2 c3bd 578d 64bd 4fe5 d43d
00000040: 9576 ebbc 07e3 9cbd f21a 35bd d10c 6dbd
00000050: 3d89 da3d 28dd c2bd c617 a03b 1d1d 19bd
00000060: 3385 403d 4dc5 593d 1141 e83c 4f95 8e3c
00000070: 7e9a 233d 5912 ccbc 965a 94bd f040 713c
00000080: e9ff e9bd 585a 81bd 770b f3bd 417e 9e3d
00000090: 8e7c 83bc d106 123d 1d0e 2e3d 6e8e 12bd
000000a0: 911b acba c21e b33d 4749 19bd 9c58 c6bd
000000b0: 3bc7 cc3d 1188 9abd 9418 413d a080 a93d
000000c0: 98e8 a43d 2c43 df3d c080 823c f255 d23d
000000d0: c0c0 1ebd 7651 f9bd c5d5 8a3d 4ad4 f93c
000000e0: fd62 54bd 126c f2bd b0b2 a63d 5c3a dbbd
000000f0: 7cb6 a63d 3dba 08bd 849e 883d 9675 6f3d
00000100: 77f5 9e3c fc4d e13c aede e23d 50be b9bd
00000110: adb1 c0bc c091 183b 1272 d03d fc74 9dbc
00000120: 6854 8ebd 1d40 003d 6af6 d43c 8bc4 bfbd
00000130: 8c0b 89bd fcd4 efbd d6cc 89bd ccb7 853d
00000140: d705 b23d 2662 b53d aca6 28bc b2de 813b
00000150: 83a2 533d 142f 5d3d ae82 3bbd f1f2 54bd
00000160: e840 ca3d 0fe8 2e3d b181 6d3d b501 b73d
00000170: 9a39 99bb aa18 54bd 18c0 e7bd e066 2bbd
00000180: 80ae d0bd c6a6 98bd 6eeb 9cbd 93b5 4ebd
00000190: 2a05 863d ff00 00be 28c2 82bc 2e71 173c
000001a0: 56ab 62bd b9aa ea3d 251c babd 2878 983c
000001b0: c3d5 dd3d a744 92bd 64e9 a7bd 4b1d 91bd
000001c0: 4c68 cabd 2102 f2bd 83c7 a5bd eb6d 823d
000001d0: 3261 f93d 53fe 853d 3f4c abbd 8505 1cbc
000001e0: 5f85 f63c d0d4 3f3d 4db3 aa3d 7c3e cebd
000001f0: 0d0b 593d b9ad c8bc 93d8 21bd 9ab5 80bd
00000200: a3f6 853d a084 49bb 8c4e a2bd 0965 583b
00000210: e6fe 553d e0b8 f7bc e5ea d5bd 7c07 cfbd
00000220: 2a54 b9bd 8ca7 dfbb b5f8 ddbd 9b2f 00bd
00000230: 5b20 12bd 195c fcbd 4b9f 9f3d 2a37 adbd
00000240: b8ca 83bc 4cbf 99bd 81e4 33bd aba2 783d
00000250: 9ead f0bd a480 f2bc 68b3 a13d 9a4f 5c3d
00000260: 2906 c23c 9a56 76bd c932 f7bb 5747 783c
00000270: 2b85 aebd 6a69 713c 3526 f9bd 6c21 6bbd
00000280: 8c45 d3bd aa2a 6d3d fbb2 f6bd 2426 833b
00000290: c26d 8d3d bc69 26bd 5a27 e23d 5040 2f3d
000002a0: b217 13bd 4bcc d63d 01ac c2bd 0fca aebd
000002b0: e517 123d 5fc2 e23b 728c 9e3d e6a1 61bd
000002c0: 7583 50bd 7e5a 893d d9c7 dc3d 522c 74bd
000002d0: 2f30 c13d 421d e7bc da44 b43d 6e19 38bd
000002e0: 4160 c8bd b8f0 f33d 58eb b9bd dbf7 5f3d
000002f0: a227 08bd 699a 9bbc 28ca a9bd f234 d3bd
00000300: 7383 643c c6bc 21bc 5a14 eebd 6058 5cbd
00000310: 61cc 96bd 5063 a03c 3ecd 87bd be22 e6bd
00000320: fd4d fcb9 6ca7 cfbd 21e7 ecbd 1be9 e2bc
00000330: a5af 483d 972a d5bd 10c5 63bd 269b e5bd
00000340: 8a34 a7bd 00d9 c4bd 6128 8a3d 4ccb 0e3d
00000350: 9107 a9bd 79f0 c7bd 59da 87bc 4be4 e03d
00000360: 4d37 97bd ebc7 c63d e583 993d 63b2 1c3d
00000370: 41bc afbd bf84 40bd 351a bfbd 72f6 c83d
00000380: 6216 983d e047 933d c90a 83bd 773c e83d
00000390: ab61 d9bd 844f dfba b0e0 123d 457e 323d
000003a0: af5a a9bd 6656 a83d c8ad 4b3c 8850 85bd
000003b0: 727c f03c 3417 6fbd 8a43 8abd d311 e03c
000003c0: d277 8cbd 172c efbd 0e30 133d 9e71 dd3d
000003d0: 0923 fe3d de2d ccbd 1fc1 f03d 4f30 99bd
000003e0: 933d d43c 40b8 823b a26f f5bc 3014 acbd
000003f0: 044f bf3d d52a 6b3d b4b1 8bbd a41b 36bd

fc2.bias f4 [64]
0.050985314 0.07435547 -0.07270891 0.119346246 -0.010003868 0.033702042 -0.1091763 0.10737037
0.055821102 -0.11999729 -0.11264118 0.083195224 0.0026659244 -0.0716266 -0.024262981 -0.039086923
0.019359984 -0.020648269 0.025418054 -0.008858968 -0.056544863 -0.122446425 -0.013130142 0.008264541
0.05579911 0.08786944 -0.081414916 -0.005981427 -0.100216076 -0.0062366533 -0.12284675 -0.091161564
-0.042156838 -0.10855164 -0.12062531 -0.038233485 -0.017718589 0.052503135 -0.024587529 -0.031202596
0.10183152 0.04699916 0.01770981 0.012279834 0.08798885 -0.053763792 -0.06249848 0.013091566
-0.024804298 -0.05557544 0.0064221425 0.026908884 -0.053070046 0.015044531 -0.102973066 0.07033792
-0.053342164 -0.10526549 0.1223125 -0.12501399 0.028929282 0.006498613 0.014791733 -0.06366095
00000000: fad5 503d ae47 983d 69e8 94bd ce6b f43d
00000010: 43e7 23bc 270b 0a3d d397 dfbd ffe4 db3d
00000020: aba4 643d 24c1 f5bd 6bb0 e6bd 4262 aa3d
00000030: cab6 2e3b f8b0 92bd 29c3 c6bc 9c19 20bd
00000040: d498 9e3c 8f26 a9bc 8639 d03c 3425 11bc
00000050: 969b 67bd 31c5 fabd cf1f 57bc ff67 073c
00000060: 9c8d 643d e5f4 b33d ddbc a6bd d9ff c3bb
00000070: 163e cdbd d75c ccbb 1497 fbbd eab2 babd
00000080: a6ac 2cbd 5250 debd 670a f7bd b79a 1cbd
00000090: 9326 91bc 870d 573d c96b c9bc 969c ffbc
000000a0: 0b8d d03d 3182 403d 2a14 913c 5b31 493c
000000b0: 8033 b43d 6c37 5cbd 68fe 7fbd 027e 563c
000000c0: 6232 cbbc 13a3 63bd d670 d23b 0570 dc3c
000000d0: fa5f 59bd 567d 763c 8be3 d2bd 540d 903d
000000e0: 507d 5abd 6f95 d7bd fa7e fa3d ab03 00be
000000f0: 1afd ec3c 51f2 d43b 0659 723c ac60 82bd

norm2.weight f4 [64]
0.9979435 0.9982944 1.0 0.99940956 0.99908906 1.0009545 1.000478 0.99706537
1.0020301 1.0020478 1.0026492 0.99920636 1.0026181 0.9990749 0.9976305 1.0018477
0.99972427 0.9980818 1.0025353 1.0015174 0.99931765 1.0026727 0.99796534 0.9972492
1.0012941 1.0020081 0.99959934 0.9978775 0.9999522 1.0006441 0.9984481 1.000626
0.99752367 1.001611 1.0009975 1.0011017 1.0004367 1.0007735 0.9983951 0.99780136
0.9981388 0.9998565 0.9997101 1.0015235 1.0029 1.0003636 1.0025591 1.0002004
1.0027432 0.9988506 1.0027848 0.9988094 1.0008682 1.0006444 1.0011076 0.9978447
1.0016788 1.0 0.9988251 0.9974078 1.0005243 0.99809873 0.9994364 0.9983262
00000000: 3a79 7f3f 3990 7f3f 0000 803f 4ed9 7f3f
00000010: 4dc4 7f3f 471f 803f aa0f 803f ad3f 7f3f
00000020: 8642 803f 1a43 803f cf56 803f fdcb 7f3f
00000030: ca55 803f 5fc3 7f3f b664 7f3f 8c3c 803f
00000040: eeed 7f3f 4a82 7f3f 1453 803f b931 803f
00000050: 48d3 7f3f 9457 803f a87a 7f3f b94b 7f3f
00000060: 682a 803f cd41 803f bee5 7f3f e674 7f3f
00000070: defc 7f3f 1b15 803f 4b9a 7f3f 8314 803f
00000080: b65d 7f3f ca34 803f b020 803f 1a24 803f
00000090: 4f0e 803f 5919 803f d296 7f3f e96f 7f3f
000000a0: 0686 7f3f 98f6 7f3f 00ed 7f3f ec31 803f
000000b0: 075f 803f ea0b 803f db53 803f 9106 803f
000000c0: e459 803f acb4 7f3f 415b 803f f9b1 7f3f
000000d0: 731c 803f 1e15 803f 4b24 803f c072 7f3f
000000e0: 0337 803f 0000 803f 00b3 7f3f 1e56 7f3f
000000f0: 2e11 803f 6683 7f3f 10db 7f3f 4e92 7f3f

norm2.bias f4 [64]
-0.0018745674 -0.0018497189 0.0 -0.0005749949 -0.0007471524 0.000109775465 0.00040873754 -0.0030710984
0.0016348754 0.002430661 0.0025412745 -0.000827804 0.0025850604 -0.0010039028 -0.0025339224 0.0016853485
-0.00016689087 -0.001962257 0.0026636038 0.0018215346 -0.0006501897 0.0024244718 -0.002172162 -0.0027965656
0.0012932465 0.0020768102 -0.00033755612 -0.0023467147 2.0704758e-05 0.0011058511 -0.0013538131 0.00044594723
-0.002608686 0.0017306178 0.0010750352 0.00076070306 0.00043673022 -1.524515e-05 -0.0017165883 -0.0021445719
-0.001636492 -0.0007056278 -4.2654014e-05 0.0016193229 0.0029158029 0.0008800309 0.0027906052 9.507265e-05
0.0027226808 -0.00085943367 0.0029708315 -0.0010474344 0.0011595424 0.0018483415 0.0015020978 -0.0021435965
0.0016606858 0.0 -0.0013724065 -0.0026172358 0.00063486997 -0.0023305744 -0.0006781103 -0.0023268668
00000000: 0bb4 f5ba 4472 f2ba 0000 0000 41bb 16ba
00000010: 8cdc 43ba 4137 e638 d34b d639 7b44 49bb
00000020: 5149 d63a ba4b 1f3b 838b 263b fc00 59ba
00000030: 1e6a 293b 6395 83ba 2a10 26bb e9e6 dc3a
00000040: 6dff 2eb9 3699 00bb db8f 2e3b 8fc0 ee3a
00000050: 7e71 2aba e3e3 1e3b d55a 0ebb 9646 37bb
00000060: 2782 a93a 181b 083b 04fa b0b9 57cb 19bb
00000070: 21af ad37 35f2 903a 6e72 b1ba 06ce e939
00000080: 7df6 2abb e6d5 e23a 32e8 8c3a eb69 473a
00000090: f0f8 e439 6cc5 7fb7 25ff e0ba f28b 0cbb
000000a0: 8f7f d6ba e1f9 38ba 66e7 32b8 763f d43a
000000b0: 0e17 3f3b e0b1 663a 96e2 363b be61 c738
000000c0: 016f 323b 9e4b 61ba 48b2 423b 114a 89ba
000000d0: c9fb 973a 0d44 f23a 0ae2 c43a 957b 0cbb
000000e0: 5eab d93a 0000 0000 52e2 b3ba ee85 2bbb
000000f0: 676d 263a 8dbc 18bb 36c3 31ba 597e 18bb

vf.weight f4 [1, 64]
0.02633572 0.12197596 -0.077904046 0.018543612 0.041223645 0.0012505923 -0.04111647 0.12127203
-0.09767086 -0.098710984 -0.10473776 0.03987843 -0.11231576 0.045855064 0.10099318 -0.037267875
-0.0058810557 0.07013035 -0.11749162 -0.057699922 0.011171268 -0.11500381 0.0915125 0.11396285
-0.07824752 -0.09491688 0.0009339941 0.04956901 0.02954373 -0.021859927 0.034328192 0.002780728
0.11030862 -0.09247689 -0.12042635 -0.088057004 0.025173929 -0.09682367 0.06049309 0.08510316
0.11464067 0.05836177 -0.004038764 -0.050515942 -0.088037014 -0.027780822 -0.046588264 0.03479726
-0.12361204 -0.013941182 -0.115387395 0.03074699 -0.10728254 -0.050035607 -0.072300225 0.11050865
-0.060295977 -0.026003003 0.030824453 0.115715936 -0.014497121 0.06311034 -0.015309957 0.07703784
00000000: 02be d73c 88ce f93d 288c 9fbd c6e8 973c
00000010: 20da 283d eaea a33a be69 28bd 785d f83d
00000020: a907 c8bd fc28 cabd c080 d6bd 9157 233d
00000030: ce05 e6bd 85d2 3b3d 83d5 ce3d 33a6 18bd
00000040: dfb5 c0bb 80a0 8f3d 729f f0bd c156 6cbd
00000050: b207 373c 1e87 ebbd e86a bb3d 5b65 e93d
00000060: 3c40 a0bd c863 c2bd 48d7 743a e008 4b3d
00000070: b105 f23c 9713 b3bc b89b 0c3d e03c 363b
00000080: 7ce9 e13d 8664 bdbd 17a2 f6bd 3b57 b4bd
00000090: 8e39 ce3c 7d4b c6bd 9ac7 773d 914a ae3d
000000a0: bac8 ea3d c00c 6f3d 9c57 84bb cee9 4ebd
000000b0: c04c b4bd 9b94 e3bc 56d3 3ebd 9287 0e3d
000000c0: 4f28 fdbd 8e69 64bc 3a50 ecbd 1de1 fb3c
000000d0: f3b6 dbbd 23f2 4cbd 2412 94bd 5c52 e23d
000000e0: eaf8 76bd 4004 d5bc 9083 fc3c 7afc ec3d
000000f0: 5585 6dbc fe3f 813d 9dd6 7abc 04c6 9d3d

economy_head.weight f4 [12, 64]
0.09008035 0.01940857 -0.030469835 0.0720143 -0.109049864 0.0012984079 0.03230987 -0.0999802
0.026300166 -0.11000934 0.107444435 0.07158832 0.116172515 0.021581778 -0.01582495 0.10574162
-0.07593909 0.08564334 -0.007894269 -0.08318415 -0.089747295 0.0054862914 0.036136832 0.123678535
0.0063371235 0.11206968 0.10449522 0.10539797 0.03172066 -0.034848325 0.10305744 0.020123325
0.10100548 0.0765502 0.05110265 -0.053538077 0.05595943 -0.02525839 0.067393474 0.07375925
0.016566122 -0.05317318 -0.011922825 -0.097833835 0.05793646 -0.11105423 -0.020055855 0.09787454
-0.037254136 -0.025674025 0.0666359 0.08380045 0.028928572 -0.06771473 0.057238854 0.120050475
0.050629284 -0.1013668 0.0070187817 -0.022696562 -0.011901995 -0.08746416 -0.08942758 0.053565767
-0.024730416 0.039392445 -0.047535762 -0.07710822 -0.05003174 -0.036730457 0.023524808 -0.09933593
0.09228845 0.10142006 0.120676376 0.12494959 -0.0143028805 0.051126443 -0.08200584 0.04402066
-0.068240255 -0.105164476 -0.014444206 0.009811062 -0.11687742 -0.12543328 -0.016536748 0.07392144
-0.068005584 0.07313719 0.046946686 0.014443329 -0.00851013 0.05950165 -0.029247364 -0.11771102
-0.065579385 -0.066589996 -0.11563561 -0.038219605 0.0029582232 -0.048371866 0.12330544 0.026592616
0.08800294 -0.09803946 -0.05322836 -0.017254425 0.11752335 -0.07697189 -0.014003632 0.073580325
-0.065838985 0.07901034 -0.010853032 0.04420143 -0.0058104107 0.0014102121 0.091447756 0.042224705
0.041562468 0.10500871 -0.0062479065 0.004869295 -0.05243478 -0.064464 -0.061277304 0.0042128935
0.07018761 -0.030524237 0.008882716 -0.049556546 -0.0994631 -0.1133592 -0.08364511 -0.11848524
0.0014788897 0.09301902 0.0005421877 0.068124086 0.10270656 -0.031918496 0.0018042113 -0.00577577
0.12197272 -0.01754387 -0.032772686 0.10040384 -0.05830944 0.103557296 0.08544615 0.10818694
0.12143682 -0.110943675 -0.0027345812 0.041494604 0.093497634 0.00750619 -0.093581416 -0.08616121
0.04162031 -0.07703186 0.049015425 -0.06408449 -0.07648971 0.06164905 -0.031119728 -0.008354862
-0.04923224 -0.105998114 0.004450623 0.034100905 0.007263901 -3.223051e-06 -0.110125795 0.005841106
-0.04979724 0.051886182 -0.013170993 -0.10907533 -0.0008302164 0.07767442 0.06735214 -0.01694566
0.12160895 0.028121263 -0.10754113 0.06151557 0.052007243 0.12224149 0.042971194 -0.042084474
-0.05987873 -0.0010216221 0.011416212 0.11354526 0.067930214 -0.013542123 -0.07419916 0.07141537
0.10939599 -0.007763707 -0.05005431 0.06597845 0.04897877 0.023751028 -0.043933958 0.06947689
0.080951154 0.06803306 0.0074146446 0.018070327 -0.0856323 -0.12101275 -0.08839141 -0.00973255
0.015662162 -0.11621737 -0.06766903 -0.062284507 -0.08582908 -0.07381232 0.015591657 0.009492068
0.023482557 0.047096696 0.04056011 -0.033583615 0.069502555 -0.040200543 -0.042524148 0.094624236
0.12026571 0.07034038 0.05448894 0.039550796 0.037280437 0.04675456 0.075676806 -0.013704165
0.11514917 -0.024001764 0.008612625 0.04115521 -0.113039814 0.004320032 0.005458426 0.07631284
0.064595036 0.050227284 -0.04363065 -0.112546176 0.04704791 -0.015127163 0.066088356 0.005980906
00000000: 0c7c b83d b9fe 9e3c e09b f9bc 3c7c 933d
00000010: 8955 dfbd 572f aa3a 5b57 043d 6bc2 ccbd
00000020: 7273 d73c 944c e1bd d40b dc3d e69c 923d
00000030: dbeb ed3d 45cc b03c 53a3 81bc 108f d83d
00000040: f485 9bbd c765 af3d f756 01bc 745c aabd
00000050: 6ecd b7bd 59c6 b33b 3704 143d 2c4b fd3d
00000060: a5a7 cf3b ca84 e53d 9701 d63d e4da d73d
00000070: 86ed 013d 1ebd 0ebd c70f d33d acd9 a43c
00000080: f6db ce3d 5ac6 9c3d 0351 513d be4a 5bbd
00000090: b735 653d afea cebc 9705 8a3d 170f 973d
000000a0: adb5 873c 1fcc 59bd f457 43bc 1b5d c8bd
000000b0: c84e 6d3d 6670 e3bd 2d4c a4bc 7272 c83d
000000c0: cb97 18bd 5552 d2bc 6778 883d 929f ab3d
000000d0: 9dfb ec3c 05ae 8abd 4a73 6a3d 06dd f53d
000000e0: a760 4f3d 6699 cfbd cffd e53b 24ee b9bc
000000f0: 9600 43bc 6920 b3bd cf25 b7bd c767 5b3d
00000100: 7197 cabc f959 213d dcb4 42bd eaea 9dbd
00000110: 15ee 4cbd ad72 16bd 19b7 c03c a370 cbbd
00000120: ba01 bd3d 52b5 cf3d 2d25 f73d 92e5 ff3d
00000130: a156 6abc f669 513d aef2 a7bd 024f 343d
00000140: 8cc1 8bbd 7960 d7bd 64a7 6cbc 94be 203c
00000150: 6e5d efbd 9571 00be 1378 87bc 2064 973d
00000160: 8346 8bbd f3c8 953d 2b4b 403d b6a3 6c3c
00000170: 136e 0bbc 01b8 733d 2b98 efbc 7a12 f1bd
00000180: 7c4e 86bd 5660 88bd 5dd2 ecbd 298c 1cbd
00000190: c0de 413b 9421 46bd 9087 fc3d c2d8 d93c
000001a0: e33a b43d eac8 c8bd fb05 5abd 2759 8dbc
000001b0: 15b0 f03d 70a3 9dbd 7d6f 65bc 48b1 963d
000001c0: 97d6 86bd 2cd0 a13d ead0 31bc 8f0c 353d
000001d0: 4265 bebb ded6 b83a f648 bb3d d0f3 2c3d
000001e0: 683d 2a3d ce0e d73d 3dbb ccbb 9b8e 9f3b
000001f0: dac5 56bd b405 84bd e9fd 7abd 500c 8a3b
00000200: 86be 8f3d f70d fabc d088 113c cefb 4abd
00000210: 4fb3 cbbd de28 e8bd 214e abbd 64a8 f2bd
00000220: 4ed7 c13a c280 be3d 9a21 0e3a a484 8b3d
00000230: d157 d23d f8bc 02bd 497b ec3a ac42 bdbb
00000240: d5cc f93d 29b8 8fbc a73c 06bd 87a0 cd3d
00000250: e1d5 6ebd d915 d43d 64fe ae3d 1d91 dd3d
00000260: deb3 f83d 7036 e3bd a936 33bb 3ff6 293d
00000270: b07b bf3d 7cf6 f53b 9da7 bfbd 4a75 b0bd
00000280: 0f7a 2a3d e1c2 9dbd 66c4 483d bb3e 83bd
00000290: a3a6 9cbd b783 7c3d cdee febc d5e2 08bc
000002a0: bfa7 49bd 8a15 d9bd 88d6 913b 64ad 0b3d
000002b0: 0506 ee3b 984b 58b6 a289 e1bd c066 bf3b
000002c0: 31f8 4bbd 9b86 543d 26cb 57bc e362 dfbd
000002d0: e1a2 59ba c413 9f3d ebef 893d a0d1 8abc
000002e0: 1d0e f93d 905e e63c 863e dcbd c0f7 7b3d
000002f0: 8c05 553d bf59 fa3d 9002 303d c560 2cbd
00000300: 6643 75bd f3e7 85ba 100b 3b3c 6b8a e83d
00000310: ff1e 8b3d c8df 5dbc bbf5 97bd 3942 923d
00000320: 010b e03d b266 febb c005 4dbd b61f 873d
00000330: f69d 483d 8491 c23c 18f4 33bd e649 8e3d
00000340: b8c9 a53d eb54 8b3d 8cf6 f23b 3908 943c
00000350: fd5f afbd 88d5 f7bd 8e06 b5bd 4675 1fbc
00000360: ef4d 803c 5f03 eebd 0f96 8abd 0a1e 7fbd
00000370: 28c7 afbd ea2a 97bd 2674 7f3c 9e84 1b3c
00000380: 7e5e c03c 77e8 403d 5c22 263d f98e 09bd
00000390: 5b57 8e3d 53a9 24bd cd2d 2ebd 5aca c13d
000003a0: de4d f63d 9e0e 903d cb2f 5f3d 0400 223d
000003b0: 5fb3 183d b681 3f3d 71fc 9a3d 6f87 60bc
000003c0: 54d3 eb3d 599f c4bc f81b 0d3c 5e92 283d
000003d0: 6b81 e7bd 0e8f 8d3b 99dc b23b e849 9c3d
000003e0: 674a 843d 20bb 4d3d 0db6 32bd 9c7e e6bd
000003f0: 4fb5 403d ecd7 77bc 5559 873d 7afb c33b

economy_head.bias f4 [12]
-0.025462199 -0.12252728 -0.117253676 -0.092565276 -0.02798369 -0.078108445 -0.10875947 0.08590865
0.07374514 -0.102386564 0.05774311 0.11142537
00000000: 1a96 d0bc 95ef fabd b222 f0bd dd92 bdbd
00000010: 0d3e e5bc 52f7 9fbd 49bd debd e0f0 af3d
00000020: b107 973d 0cb0 d1bd 0a84 6c3d fc32 e43d

army_head.weight f4 [2, 64]
0.110423855 -0.11827763 0.036469236 -0.00390246 -0.001698986 -0.035061922 0.034497906 0.048744634
-0.04135085 0.05013678 0.015642947 -0.012706133 -0.024501787 0.09122285 0.06002234 0.062517755
0.075366005 0.08899449 -0.07382902 0.01847 -0.0315481 -0.013702191 -0.015020189 0.06265717
0.109143294 0.008071648 -0.06152022 0.08074399 -0.058246695 -0.041296974 -0.076006025 -0.011119053
0.10942049 -0.01660523 -0.06410946 -0.06882908 0.047191918 0.025395991 0.019744545 -0.12376014
0.048813835 0.06360165 -0.0866219 -0.0062450855 0.09673003 -0.08715335 0.047596503 -0.023622496
0.10778847 -0.1098391 -0.07559807 0.0032670978 -0.060636602 0.059029654 0.10747341 -0.011806955
0.014498808 0.040799096 -0.045522943 -0.071998 -0.037165508 -0.053386725 0.043739315 0.03988452
0.11560687 -0.04479501 -0.044638798 -0.034968175 -0.057110038 0.02196101 0.09843405 0.015845638
0.04105694 0.101026095 0.020068536 0.07548248 -0.08050845 -0.10278922 0.0036822997 -0.09213611
-0.08444594 -0.118105546 -0.10378193 -0.03962722 -0.123940215 -0.080801494 -0.08069379 -0.040369242
-0.029907111 0.120190255 -0.003605867 0.11300137 0.037081487 -0.062455192 -0.04305325 -0.051975936
0.103288636 -0.044658534 -0.10063444 -0.09627246 0.099270955 -0.039487466 -0.0931309 -0.030318199
-0.0913121 0.0041528284 -0.08864518 0.05934833 0.047118247 0.09416554 0.003284415 0.11766828
0.10993132 7.1766284e-05 -0.08750733 0.046910178 -0.10653042 -0.06179613 0.08995866 -0.121806905
-0.054178447 0.06165889 -0.08507796 0.09082329 0.11055366 -0.0013226038 -0.08473116 -0.0621902
00000000: e725 e23d 8b3b f2bd c460 153d 6ac0 7fbb
00000010: 83b0 deba 179d 0fbd ad4d 0d3d 74a8 473d
00000020: 825f 29bd 395c 4d3d a325 803c 622d 50bc
00000030: f9b7 c8bc 0cd3 ba3d fcd9 753d 4f09 803d
00000040: 7e59 9a3d be42 b63d ab33 97bd 664e 973c
00000050: 9538 01bd 287f 60bc 3d17 76bc 6752 803d
00000060: 8586 df3d f23e 043c a0fc 7bbd 1b5d a53d
00000070: 1694 6ebd 0427 29bd 0ca9 9bbd b02c 36bc
00000080: da17 e03d b107 88bc d24b 83bd 43f6 8cbd
00000090: 504c 413d 410b d03c 50bf a13c f575 fdbd
000000a0: 04f1 473d 9541 823d d366 b1bd 93a3 ccbb
000000b0: 651a c63d 757d b2bd 8df4 423d f783 c1bc
000000c0: 34c0 dc3d 52f3 e0bd 29d3 9abd ce1c 563b
000000d0: 165e 78bd 14c9 713d 051b dc3d f571 41bc
000000e0: 698c 6d3c f41c 273d 4476 3abd b073 93bd
000000f0: dc3a 18bd 0aac 5abd ff27 333d f35d 233d
00000100: 4bc3 ec3d f97a 37bd 2cd7 36bd ca3a 0fbd
00000110: 37ec 69bd 93e7 b33c cb97 c93d b6ce 813c
00000120: 522b 283d c5e6 ce3d c566 a43c 8f96 9a3d
00000130: 9de1 a4bd 2883 d2bd bd52 713b dbb1 bcbd
00000140: fef1 acbd 52e1 f1bd 9f8b d4bd 2750 22bd
00000150: 5ed4 fdbd 417b a5bd c942 a5bd 385a 25bd
00000160: c2ff f4bc 4f26 f63d 6950 6cbb 436d e73d
00000170: c2e2 173d 04d1 7fbd 9b58 30bd b8e4 54bd
00000180: fe88 d33d deeb 36bd 6e19 cebd 7f2a c5bd
00000190: 924e cb3d 9cbd 21bd 6abb bebd df5d f8bc
000001a0: d701 bbbd 7314 883b 9b8b b5bd 3c17 733d
000001b0: 10ff 403d ddd9 c03d 573f 573b 11fc f03d
000001c0: ac23 e13d 3b81 9638 0b37 b3bd e324 403d
000001d0: 9f2c dabd f01d 7dbd 3f3c b83d e675 f9bd
000001e0: 38ea 5dbd 088e 7c3d 5a3d aebd 9001 ba3d
000001f0: f569 e23d 385b adba 8887 adbd 27bb 7ebd

army_head.bias f4 [2]
0.048236452 0.031020833
00000000: 9693 453d 671f fe3c
